assignment1-basics/cs336_basics/checkpoints/checkpoint_epoch0.pt (torch, 614054 bytes, 63 tensors)

transformer_blocks.0.ffn.w1 f4 [128, 32]
-0.15086386 0.08276118 0.19445859 -0.19477767 -0.050876517 0.03871866 0.2645918 -0.17776754
0.11147226 -0.009915125 -0.0014104171 -0.115317404 0.01874291 0.07306923 -0.035064254 -0.20929398
-0.17916054 -0.032870885 -0.054161135 -0.055126686 -0.042648453 -0.13122894 -0.074989736 0.17883132
0.04522466 -0.120060824 -0.028410377 -0.11985031 0.042289697 0.20202523 -0.023013985 0.08268459
0.11847827 -0.18742351 -0.22559604 0.22712328 0.143903 0.18897691 0.07226834 -0.06140316
-0.13313371 0.08352072 -0.13986798 -0.04852986 0.23617391 -0.14470136 0.0734131 0.055639304
-0.013929653 0.017767157 -0.15347113 -0.004798746 -0.3047366 -0.1086044 0.026811583 0.04530599
0.0639347 -0.10442141 0.14095245 0.13271955 -0.0051614475 0.16283296 -0.108083904 -0.0075378483
-0.21104 0.05924333 0.086690165 0.08050813 -0.1336057 -0.11054471 -0.007645296 0.027578494
0.22034372 -0.20373453 0.064212486 -0.18396205 0.1946662 -0.04403608 -0.26224178 -0.00339372
0.028366148 -0.007752727 -0.33390638 0.015599834 0.24734536 -0.12676287 -0.10827908 -0.04040502
-0.006316323 0.07702997 -0.17345832 -0.021866998 0.15678583 0.27366778 -0.027617224 0.23849319
-0.22889525 0.03219124 -0.38616306 0.0012027546 -0.039679296 -0.0724214 -0.10602652 -0.056098036
-0.1827508 0.048257716 0.055029456 -0.16179802 -0.14727873 -0.10736461 0.14303976 -0.072015464
-0.07514511 -0.15047927 -0.2783778 0.030267153 -0.054385528 0.03789414 0.10751364 -0.04549283
-0.012302681 0.19634572 0.057593018 0.039452452 -0.06577607 -0.0062804413 0.07852331 0.020249568
0.14964692 0.07377001 -0.022302512 0.15278211 -0.044571575 -0.13318004 0.03255736 0.14935035
-0.27182508 -0.14790887 -0.009318913 -0.123952635 -0.03824502 0.033796087 0.0041631046 0.11550484
0.11569259 -0.1680818 0.07825979 0.0880684 -0.04496377 -0.06683377 0.0492996 0.040613767
0.09090159 -0.0027534266 0.20358804 0.042719938 -0.030105412 0.041768853 -0.11868997 -0.37879694
0.023155116 0.14362481 -0.055078838 -0.18273985 0.030536294 -0.12279812 0.12210902 0.0737269
-0.29810894 0.07464053 0.23838162 0.27339345 -0.13618015 0.043344826 0.16433111 0.07128461
-0.1808643 -0.099117994 0.015671352 -0.049534116 -0.028594775 -0.12417955 -0.089797765 -0.027377013
0.05135754 0.1501189 -0.04644026 -0.088588074 -0.37858674 -0.0108834 -0.14251582 -0.10092196
-0.014773151 -0.08589889 -0.20135349 -0.11044578 -0.2061033 -0.07316151 -0.07182364 0.026382076
0.32163894 -0.056315668 0.043368172 0.00836966 -0.092138276 -0.2925282 0.14190927 0.2835084
-0.03220539 -0.3086018 0.3728436 0.17740391 -0.04868621 0.002683704 0.12252205 -0.0056130392
-0.05048492 0.21416736 0.18284604 0.34300053 0.08131719 0.09198181 0.16611224 -0.22684966
-0.086866416 0.107218996 -0.18627623 0.116245076 -0.027941218 0.0297873 0.105039306 0.14484468
0.013134988 -0.097986944 0.07108435 0.08220928 0.27120915 0.025680007 0.035136063 -0.17745519
-0.14588925 0.11956203 0.11060707 -0.063699156 -0.15667042 -0.13165379 -0.123745024 0.09035492
-0.19597733 -0.017285757 0.07749664 -0.17805727 0.035738584 0.02595687 0.031212121 -0.21200845
00000000: 0e7c 1abe b27e a93d 2720 473e cc73 47be
00000010: e563 50bd 7597 1e3d 9478 873e b208 36be
00000020: 914b e43d 0c73 22bc bfdd b8ba 882b ecbd
00000030: bb8a 993c 52a5 953d 899f 0fbd 2951 56be
00000040: dc75 37be 9fa3 06bd 11d8 5dbd 85cc 61bd
00000050: 25b0 2ebd e160 06be 3894 99bd 8f1f 373e
00000060: 7e3d 393d 73e2 f5bd e1bc e8bc 1474 f5bd
00000070: f637 2d3d b4df 4e3e d387 bcbc 8a56 a93d
00000080: bca4 f23d f3eb 3fbe a602 67be 0193 683e
00000090: 4f5b 133e 2a83 413e 6c01 943d e181 7bbd
000000a0: 3454 08be e90c ab3d 8d39 0fbe 3fc7 46bd
000000b0: 93d7 713e 982c 14be 9b59 963d 0ae6 633d
000000c0: 3339 64bc 6e8c 913c 8927 1dbe cd3e 9dbb
000000d0: 7006 9cbe fc6b debd f7a3 db3c c692 393d
000000e0: 32f0 823d e4da d5bd d755 103e a2e7 073e
000000f0: 5c21 a9bb afbd 263e 185b ddbd 0e00 f7bb
00000100: df1a 58be 22a9 723d 9d8a b13d 72e1 a43d
00000110: efcf 08be 4465 e2bd 6485 fabb 4bec e13c
00000120: c9a1 613e c99f 50be d681 833d 8c60 3cbe
00000130: 9456 473e 2d5f 34bd 8e44 86be 2c69 5ebb
00000140: 2060 e83c 960a febb c7f5 aabe 7296 7f3c
00000150: 1a48 7d3e 20ce 01be 6cc1 ddbd bc7f 25bd
00000160: 28f9 cebb e4c1 9d3d 0f9f 31be 6b22 b3bc
00000170: 778c 203e 2f1e 8c3e 843d e2bc 8f37 743e
00000180: 8463 6abe f6da 033d 2ab7 c5be bfa5 9d3a
00000190: c286 22bd ac51 94bd 6f24 d9bd 0ec7 65bd
000001a0: 0723 3bbe e2a9 453d 9166 613d 61ae 25be
000001b0: 3cd0 16be fae1 dbbd 0479 123e d87c 93bd
000001c0: aee5 99bd 3d17 1abe 8987 8ebe d2f2 f73c
000001d0: 5cc3 5ebd e336 1b3d 1c30 dc3d b156 3abd
000001e0: 2f91 49bc da0e 493e a8e6 6b3d e598 213d
000001f0: 9bb5 86bd 29cc cdbb d4d0 a03d 6ce2 a53c
00000200: 0b3d 193e bb14 973d c2b3 b6bc ea72 1c3e
00000210: af90 36bd 5960 08be de5a 053d 4cef 183e
00000220: a82c 8bbe 6c75 17be 5bae 18bc e1da fdbd
00000230: cfa6 1cbd c46d 0a3d a76a 883b cd8d ec3d
00000240: 3df0 ec3d a31d 2cbe ab46 a03d 355d b43d
00000250: ee2b 38bd 25e0 88bd 61ee 493d 9f5a 263d
00000260: 9d2a ba3d d572 34bb 6279 503e 1afb 2e3d
00000270: a09f f6bc d115 2b3d ba13 f3bd acf1 c1be
00000280: ccaf bd3c 6212 133e 599a 61bd 2820 3bbe
00000290: 4027 fa3c 957d fbbd 4b14 fa3d 21fe 963d
000002a0: bca1 98be 22dd 983d 501a 743e 3afa 8b3e
000002b0: cf72 0bbe 588a 313d 6a46 283e aafd 913d
000002c0: 7e34 39be 60fe cabd 3561 803c 49e4 4abd
000002d0: 973f eabc d951 febd e4e7 b7bd c245 e0bc
000002e0: 495c 523d c5b8 193e 2438 3ebd aa6d b5bd
000002f0: 1fd6 c1be 4a50 32bc abef 11be 2cb0 cebd
00000300: 160b 72bc c2eb afbd 9c2f 4ebe 6631 e2bd
00000310: be0c 53be b4d5 95bd 4618 93bd 391f d83c
00000320: dcad a43e 42ab 66bd d3a2 313d e620 093c
00000330: feb2 bcbd 42c6 95be aa50 113e 0328 913e
00000340: cde9 03bd 0e01 9ebe 5be5 be3e 5fa9 353e
00000350: 316b 47bd 15e1 2f3b d7ec fa3d 96ed b7bb
00000360: 47c9 4ebd b04e 5b3e fe3b 3b3e c49d af3e
00000370: a089 a63d f660 bc3d 5419 2a3e 474b 68be
00000380: 05e7 b1bd a295 db3d 32bf 3ebe e611 ee3d
00000390: fbe4 e4bc 7f04 f43c d91e d73d 2a52 143e
000003a0: 2234 573c 61ad c8bd ac94 913d 575d a83d
000003b0: eddb 8a3e e15e d23c d5ea 0f3d d0b6 35be
000003c0: fe63 15be f0dc f43d f685 e23d b474 82bd
000003d0: 366e 20be 40d0 06be 086e fdbd 000c b93d
000003e0: 48ae 48be dc9a 8dbc 8fb6 9e3d a554 36be
000003f0: 9f62 123d 80a3 d43c 90b0 ff3c be18 59be

transformer_blocks.0.ffn.w3 f4 [128, 32]
-0.18108933 -0.20147344 0.08380304 0.1243206 -0.08223527 -0.087397635 -0.05805298 0.08977075
0.04908073 -0.06115278 -0.16553487 0.1250459 -0.28123984 0.120356634 0.011278087 0.052074216
0.0146535 0.15487285 0.00930449 0.14117521 -0.33794707 -0.11499769 0.051025387 -0.17399445
-0.16003986 -0.03797421 0.1280124 -0.23397458 -0.068750024 -0.19183256 0.1727572 0.13395213
0.064509384 -0.2708186 -0.06791399 -0.019657418 0.028344397 -0.061710875 0.04520275 0.0109531395
0.0106045 -0.07084085 -0.001472621 -0.087742426 0.019792123 0.14739235 0.16473211 0.026608285
-0.042013273 0.12256375 -0.03507238 -0.08680912 -0.17442702 -0.27687204 -0.010080731 -0.034793105
-0.023396675 0.03315011 0.120727435 -0.12821719 -0.06657921 0.03206116 -0.10377914 0.00044488726
0.07578416 0.08124955 -0.046111345 -0.014362673 -0.16061202 -0.097879425 0.004278086 -0.23522067
-0.1207529 0.09734879 -0.15762286 0.088512674 -0.22517695 -0.10998128 0.10046627 -0.0077381977
0.13382792 -0.15651093 -0.13667142 -0.29825655 -0.08624958 0.005724145 0.019249195 0.13637157
-0.0033270486 -0.06378518 0.059743177 -0.015666602 -0.1043747 0.038339045 0.08960981 -0.30897242
-0.05271435 -0.1666831 0.019073905 0.016172426 0.05961655 -0.2069595 0.18281925 -0.008311453
-0.0071179243 -0.09022206 -0.02416417 -0.0813874 0.012675771 -0.02281418 0.13478716 -0.13239011
-0.11373657 0.020565405 -0.093281545 0.045643467 -0.10778438 0.116359055 -0.08820959 -0.045716904
0.15581588 -0.15563287 0.02497842 0.12558632 -0.059966702 -0.004091704 0.077199616 -0.012995098
0.015113211 -0.0527861 0.056056213 -0.020692872 -0.12092091 -0.00871825 0.05505939 0.03731425
0.06835279 -0.09946554 0.057966407 -0.13128142 0.06980057 -0.029483125 -0.12802723 0.07092746
0.098427705 -0.004429531 -0.10650516 -0.029682677 -0.03478272 0.074205056 -0.19559225 0.14143541
0.19350608 -0.0013290683 0.0393376 -0.050610784 0.05360296 -0.22921921 0.103417136 0.13952848
0.01715699 -0.23544136 -0.17019965 0.1305781 0.10503612 0.07064036 -0.09806781 -0.016037952
-0.06500356 0.06257637 0.05134355 -0.014406738 -0.019458763 0.08954235 -0.055167582 0.15381923
0.10004118 0.31060162 0.17008871 -0.26876774 -0.28342372 -0.12887627 0.07371455 -0.01934418
0.07325773 0.20338266 -0.016636226 0.06087323 0.0924252 -0.15132546 -0.08199694 -0.07461645
-0.24279 0.12660778 -0.15184766 -0.12195899 0.0445984 -0.03640696 0.21954317 -0.2821794
0.09834757 -0.18416147 0.37909797 0.14416496 0.0071885 -0.19333191 0.21986054 0.07691967
0.14239691 -0.11340164 -0.008009197 -0.023832828 -0.090815194 -0.18979143 0.004343325 -0.12954415
0.06595453 -0.10797782 0.048258886 0.16702327 0.11518837 0.05882546 0.16059159 0.02491769
-0.1731673 -0.041021585 0.1031635 0.07133602 -0.06686414 -0.14138165 -0.17466696 0.076258644
-0.12217865 -0.047791988 -0.16473208 0.0996931 0.116277106 0.12862329 -0.0419601 0.20223957
-0.30916077 -0.13888393 -0.105783336 0.09278545 -0.097077414 -0.095783316 -0.13022712 -0.31635118
0.13577716 0.098250754 0.2804302 -0.028619085 0.09809264 -0.13968 0.11535396 -0.073584765
00000000: 7b6f 39be 0e4f 4ebe eea0 ab3d cc9b fe3d
00000010: f76a a8bd 88fd b2bd f6c8 6dbd bad9 b73d
00000020: e008 493d 567b 7abd f981 29be 080c 003e
00000030: abfe 8fbe 8a7d f63d bac7 383c c64b 553d
00000040: 3c15 703c fd96 1e3e dc71 183c 3c90 103e
00000050: 6607 adbe e983 ebbd ffff 503d 9a2b 32be
00000060: 7de1 23be d88a 1bbd af15 033e 0897 6fbe
00000070: d0cc 8cbd c16f 44be 43e7 303e bf2a 093e
00000080: 7f1d 843d bca8 8abe 7d16 8bbd 9808 a1bc
00000090: 8232 e83c 8bc4 7cbd 8526 393d cc74 333c
000000a0: 7fbe 2d3c 0215 91bd f604 c1ba 4db2 b3bd
000000b0: 1723 a23c 05ee 163e 89af 283e 9ef9 d93c
000000c0: 1c16 2cbd b402 fb3d 0ea8 0fbd fbc8 b1bd
000000d0: ff9c 32be 2cc2 8dbe a629 25bc 3783 0ebd
000000e0: 62aa bfbc 69c8 073d f23f f73d 5e4b 03be
000000f0: ae5a 88bd 9052 033d 288a d4bd c23f e939
00000100: ba34 9b3d 2a66 a63d 40df 3cbd 6b51 6bbc
00000110: 7a77 24be 0275 c8bd 302f 8c3b b0dd 70be
00000120: 4c4d f7bd cd5e c73d e367 21be 2246 b53d
00000130: c994 66be de3d e1bd 43c1 cd3d b590 fdbb
00000140: 300a 093e 6744 20be 98f3 0bbe 15b5 98be
00000150: 9fa3 b0bd 9c91 bb3b 7db0 9d3c fda4 0b3e
00000160: 9d0a 5abb cea1 82bd 43b5 743d 3f57 80bc
00000170: 67c2 d5bd 6709 1d3d 5985 b73d a231 9ebe
00000180: 01eb 57bd f9ae 2abe e140 9c3c 097c 843c
00000190: 7c30 743d 31ed 53be f834 3b3e c32c 08bc
000001a0: 7a3d e9bb 58c6 b8bd f0f3 c5bc 70ae a6bd
000001b0: 09ae 4f3c cee4 babc a505 0a3e 4691 07be
000001c0: b8ee e8bd c878 a83c 650a bfbd a5f4 3a3d
000001d0: 0fbe dcbd a84d ee3d 3ba7 b4bd a641 3bbd
000001e0: 338e 1f3e 395e 1fbe 8b9f cc3c b399 003e
000001f0: a59f 75bd b313 86bb d51a 9e3d 64e9 54bc
00000200: 679d 773c 3d36 58bd 339b 653d 1984 a9bc
00000210: 62a5 f7bd fed6 0ebc f485 613d d4d6 183d
00000220: 8cfc 8b3d 97b4 cbbd 2f6e 6d3d a36e 06be
00000230: 9af3 8e3d 9886 f1bc 9219 03be 6b42 913d
00000240: 7794 c93d 9925 91bb 611f dabd 1629 f3bc
00000250: 5378 0ebd d2f8 973d 5649 48be 72d4 103e
00000260: 7526 463e 2234 aeba 7720 213d 414d 4fbd
00000270: c78e 5b3d 71b8 6abe 5dcc d33d 8ee0 0e3e
00000280: d18c 8c3c 8a17 71be d148 2ebe 44b6 053e
00000290: 2d1d d73d e5ab 903d c7d7 c8bd 0662 83bc
000002a0: 9620 85bd 0a28 803d 9d4d 523d 3d0a 6cbc
000002b0: fc67 9fbc fb61 b73d 67f7 61bd ca82 1d3e
000002c0: 64e2 cc3d 2d07 9f3e bc2b 2e3e ed9b 89be
000002d0: ea1c 91be 24f8 03be a7f7 963d b077 9ebc
000002e0: 2608 963d 8b43 503e b248 88bc 3556 793d
000002f0: 6c49 bd3d 10f5 1abe 03ee a7bd 82d0 98bd
00000300: f19d 78be 78a5 013e f47d 1bbe a3c5 f9bd
00000310: d0ac 363d 771f 15bd edcf 603e d179 90be
00000320: 736a c93d d394 3cbe 2119 c23e fb9f 133e
00000330: 828d eb3b cdf8 45be 1f23 613e 0f88 9d3d
00000340: 7fd0 113e 1e3f e8bd 0239 03bc 103d c3bc
00000350: 51fd b9bd af58 42be 7352 8e3b 39a7 04be
00000360: 2b13 873d 7a23 ddbd 1cab 453d 2608 2b3e
00000370: e1e7 eb3d f7f2 703d 1f72 243e 2f20 cc3c
00000380: c552 31be 4006 28bd 6347 d33d 9f18 923d
00000390: 11f0 88bd 5ac6 10be e5db 32be 7e2d 9c3d
000003a0: cd38 fabd 88c1 43bd 87af 28be e52b cc3d
000003b0: b122 ee3d d3b5 033e 5bde 2bbd e417 4f3e
000003c0: 524a 9ebe 9737 0ebe efa4 d8bd 4c06 be3d
000003d0: 86d0 c6bd 0b2a c4bd 425a 05be c8f8 a1be
000003e0: 2b09 0b3e b137 c93d 8c94 8f3e 9272 eabc
000003f0: cbe4 c83d 4608 0fbe b23e ec3d 9cb3 96bd

transformer_blocks.0.ffn.w2 f4 [32, 128]
0.012957632 0.0055065397 0.24231109 0.09396573 0.19050749 -0.25554067 -0.08732547 0.000922431
-0.12276007 -0.013208617 0.04087076 -0.06189252 -0.041649442 -0.1537249 0.044752188 0.06842809
0.0791546 0.089105435 -0.06554631 0.2866018 0.0996669 -0.017942024 -0.050081324 0.054998178
0.019799417 -0.1787821 -0.027260097 0.037324548 -0.049597327 -0.09082839 -0.066331014 -0.11567833
0.019115802 0.054219864 -0.08614321 0.06155531 0.10847287 -0.024206463 0.038234636 -0.047249846
-0.26093882 -0.032858446 0.12817658 -0.061484557 -0.003770875 0.22563232 -0.044364437 -0.118167706
-0.020810412 0.08113723 -0.003087932 -0.014944168 -0.1307299 0.028646894 -0.05415096 -0.12325273
0.13698912 0.025798528 -0.14491908 -0.011035199 0.011236796 -0.11309936 0.08357619 -0.06118045
0.12106528 -0.17219996 -0.0041217185 -0.11579038 -0.028445836 0.16823298 -0.04541281 -0.042454004
-0.071089804 0.16194019 -0.14452468 -0.0171671 -0.15091553 -0.038841512 -0.23819305 0.0047393087
-2.687797e-06 -0.19300571 -0.091108896 -0.16167101 -0.09355354 0.024762662 -0.09291324 -0.053822227
-0.037721805 0.074623816 0.016585836 -0.21682464 -0.06519561 -0.0002205197 0.3408034 0.028497254
-0.04377886 0.03308355 0.05681925 0.009991231 -0.05588987 0.14600295 0.1669549 -0.004935715
-0.020248013 -0.043728985 -0.038744453 -0.08320984 -0.37132385 0.13817064 0.12326033 0.06443437
-0.21730132 0.017068174 0.1520804 -0.07699774 -0.12083234 -0.2630319 0.051073294 -0.0012319317
-0.12955426 0.027360015 -0.1141429 -0.056046084 -0.23668547 0.034360323 -0.19911778 -0.08595557
0.045942858 0.11773796 0.03915364 -0.050653562 0.084715255 -0.013286123 0.09663514 -0.23023897
0.18902224 0.02723532 -0.018563094 -0.13236052 -0.17417671 -0.07463579 -0.053076804 0.23944278
0.058652736 -0.07628086 0.07134704 0.008480489 0.11489096 -0.24877287 -0.1790528 0.12134692
-0.016215704 -0.25487378 -0.075337104 -0.2868609 0.1256483 0.005827084 -0.20095685 0.2109498
-0.17713483 0.056887 0.09298576 -0.045461692 0.05672916 0.017889725 0.12825494 -0.07540901
0.20284544 -0.031694055 0.058434602 -0.09531479 0.16875084 0.18913102 -0.030241229 -0.20528273
0.16936208 0.11542858 0.12642536 -0.121290356 0.28032327 0.21673748 0.11512453 0.07730784
-0.24315618 0.108264625 -0.09258489 -0.0833942 0.07478531 -0.216509 0.042514924 0.08516605
-0.2524235 -0.0046885093 -0.056285553 0.011259627 -0.10088505 0.0073597804 0.09000695 0.01969677
0.23102294 0.1420028 0.2634138 -0.050672516 0.0026417577 -0.041865166 0.22935854 -0.0035256501
-0.018072631 -0.078598216 0.11606979 -0.067634135 -0.17388628 0.020476013 -0.13707729 0.09176949
-0.3446534 0.10375699 0.31127152 0.024613434 0.038598046 -0.12601301 0.103740856 -0.018452385
0.02686837 0.017471362 0.1586892 -0.23446092 -0.10676638 0.114898756 -0.06594117 -0.045352653
0.06731122 0.003558338 -0.040279374 -0.2174773 -0.09277461 -0.11723361 -0.13797195 -0.25549632
0.18490951 0.13385741 0.14731416 -0.2611115 -0.04175001 0.17721832 0.17521039 -0.041825615
-0.14813747 -0.08109175 0.021935651 -0.32341158 -0.121579535 -0.056645483 0.04231616 0.118249945
00000000: 3f4c 543c 3470 b43b 6620 783e 1b71 c03d
00000010: 6514 433e 3ad6 82be b2d7 b2bd 4ccf 713a
00000020: a269 fbbd f568 58bc 1968 273d 0383 7dbd
00000030: 9b98 2abd 0f6a 1dbe 124e 373d 0724 8c3d
00000040: cf1b a23d e97c b63d 253d 86bd 79bd 923e
00000050: 291e cc3d 27fb 92bc 1322 4dbd c545 613d
00000060: 6332 a23c a812 37be 9150 dfbc a0e1 183d
00000070: 9126 4bbd 3c04 babd 8ed8 87bd c3e8 ecbd
00000080: be98 9c3c a615 5e3d da6b b0bd 6c21 7c3d
00000090: 0627 de3d a24c c6bc ec9b 1c3d 0e89 41bd
000000a0: c699 85be 9496 06bd b940 033e 3bd7 7bbd
000000b0: c920 77bb 290c 673e 7cb7 35bd e901 f2bd
000000c0: 997a aabc 472b a63d e75e 4abb 62d8 74bc
000000d0: 0fde 05be e4ac ea3c 66cd 5dbd ed6b fcbd
000000e0: e046 0c3e 6f57 d33c ab65 14be fbcc 34bc
000000f0: 8a1a 383c a3a0 e7bd fe29 ab3d 5a98 7abd
00000100: 13f1 f73d 3055 30be 7b0f 87bb 8223 edbd
00000110: 3e07 e9bc 4445 2c3e c802 3abd 40e4 2dbd
00000120: 8897 91bd a6d3 253e 47fe 13be 05a2 8cbc
00000130: 9a89 1abe 4718 1fbd e1e8 73be 344c 9b3b
00000140: 0060 34b6 4aa3 45be 4d97 babd 168d 25be
00000150: 0099 bfbd 11db ca3c 4c49 bebd b274 5cbd
00000160: 2e82 1abd 5fd4 983d 05df 873c 4707 5ebe
00000170: 4785 85bd 4e3b 67b9 c97d ae3e 1373 e93c
00000180: 7651 33bd 9e82 073d 4dbb 683d 43b2 233c
00000190: c7ec 64bd cc81 153e 3af6 2a3e c7bb a1bb
000001a0: 29df a5bc 2a1d 33bd 81b2 1ebd ec69 aabd
000001b0: 291e bebe 9b7c 0d3e e96f fc3d 2bf6 833d
000001c0: 3d84 5ebe 8ed2 8b3c f7ba 1b3e feb0 9dbd
000001d0: f276 f7bd 1eac 86be 3b32 513d c578 a1ba
000001e0: dfa9 04be 1c22 e03c c1c3 e9bd 9490 65bd
000001f0: ad5d 72be 69bd 0c3d 88e5 4bbe 7909 b0bd
00000200: 942e 3c3d 9920 f13d 915f 203d 1c7a 4fbd
00000210: 317f ad3d 0aae 59bc a5e8 c53d c4c3 6bbe
00000220: 0c8f 413e 9b1c df3c a111 98bc 8489 07be
00000230: 615b 32be a6da 98bd 1067 59bd 7d30 753e
00000240: da3d 703d 2439 9cbd 661e 923d c0f1 0a3c
00000250: f44b eb3d 51be 7ebe 9e59 37be bc84 f83d
00000260: ccd6 84bc d17e 82be 574a 9abd 6fdf 92be
00000270: f3a9 003e 20f1 be3b a2c7 4dbe 3903 583e
00000280: d562 35be 5802 693d 516f be3d 0a36 3abd
00000290: d65c 683d 798d 923c 4355 033e 0a70 9abd
000002a0: b7b6 4f3e a0d1 01bd 1f59 6f3d 6734 c3bd
000002b0: 05cd 2c3e 90ab 413e 74bc f7bc a335 52be
000002c0: 416d 2d3e d265 ec3d a675 013e 1467 f8bd
000002d0: 8886 8f3e 6ef0 5d3e 69c6 eb3d 9353 9e3d
000002e0: effd 78be d8b9 dd3d 269d bdbd 94ca aabd
000002f0: 0a29 993d 89b4 5dbe 2124 2e3d 8a6b ae3d
00000300: a73d 81be 11a2 99bb ae8b 66bd 4c7a 383c
00000310: d29c cebd 502a f13b 9055 b83d 1f5b a13c
00000320: 4791 6c3e 2f69 113e 2cde 863e fc8d 4fbd
00000330: 5721 2d3b cf7a 2bbd f7dc 6a3e 980e 67bb
00000340: 0e0d 94bc 1af8 a0bd 00b6 ed3d c483 8abd
00000350: 3f0f 32be 50bd a73c fd5d 0cbe a4f1 bb3d
00000360: 6976 b0be 8b7e d43d fb5e 9f3e 1da2 c93c
00000370: fc18 1e3d 8e09 01be 1676 d43d 7529 97bc
00000380: 0e1b dc3c 1a20 8f3c 6c7f 223e 8616 70be
00000390: 55a8 dabd 0a50 eb3d 2a0c 87bd b4c3 39bd
000003a0: 77da 893d 0133 693b fcfb 24bd 5fb2 5ebe
000003b0: 9d00 bebd 2d18 f0bd 8548 0dbe 6ad0 82be
000003c0: eb58 3d3e eb11 093e 86d9 163e 68b0 85be
000003d0: 0f02 2bbd b878 353e 5a6a 333e 5651 2bbd
000003e0: 59b1 17be 6e13 a6bd 65b2 b33c 3496 a5be
000003f0: b1fe f8bd 1805 68bd b653 2d3d 072d f23d

transformer_blocks.0.mla.q_proj f4 [32, 32]
0.4300767 -0.003361477 -0.34736663 0.0914698 -0.22954908 0.37529498 0.27223316 -0.1156346
-0.15637629 0.15207444 -0.07060034 -0.06157013 0.19618686 -0.12050923 0.56436753 0.095608875
0.17244281 0.12128933 -0.054635957 -0.23740682 -0.16057093 -0.6141305 -0.21708395 -0.117366165
-0.0065597054 0.28147423 0.038647585 -0.28620672 -0.07597661 -0.02289624 -0.23818032 -0.06856928
0.38490945 0.08477253 0.32067367 -0.05779756 0.012304206 -0.277711 -0.1276038 -0.09718334
0.011183383 -0.29218206 -0.007799589 0.2597051 0.06724827 -0.063187025 -0.04959024 0.06396046
-0.052130867 -0.024322623 0.008046309 0.05796546 -0.07730964 -0.30067304 0.15552102 0.25533482
0.16603832 0.02405617 0.042480722 0.14948386 -0.16753061 0.39076057 0.12502208 -0.25246194
0.082552396 -0.069371134 0.09887974 -0.3026453 -0.17079173 0.03960047 0.34410638 0.250142
0.1721294 0.31048137 -0.09644499 0.030778112 -0.16470109 -0.30152673 0.24652816 -0.27966076
0.19121772 -0.1652774 0.105863 -0.29342735 -0.33908406 0.035396226 0.001097874 -0.11770666
0.09071547 -0.09770826 -0.01621891 -0.2408982 -0.24035892 -0.015616396 -0.019289058 -0.2612032
-0.096172825 -0.15248069 0.20844504 0.21172929 -0.043994755 -0.21166295 -0.3788673 -0.39833027
-0.0039018237 -0.23038626 -0.012440842 -0.07324098 -0.07878941 -0.06720735 0.2582721 -0.15904543
0.15827769 0.0644431 0.11115679 -0.0797843 0.12142711 0.3673006 0.14116375 0.19933237
-0.24209017 -0.24480772 -0.5373057 -0.16510311 -0.10056729 -0.07542399 0.23010351 -0.055566147
0.037319835 0.23337275 -0.1649063 0.1776722 -0.0039981757 -0.22352068 0.32915998 0.277319
0.10537 0.19246596 0.2774634 0.1646114 -0.039885074 -0.08923155 0.22957432 0.05688818
0.08803412 -0.637693 0.18779694 -0.18398462 0.108411334 0.37977928 -0.02345988 0.022823555
0.10698578 0.18934207 0.12110632 -0.38053516 -0.30300832 0.27326795 -0.25647244 -0.23489445
0.08370011 -0.34697467 0.16933103 -0.30247772 0.065202914 0.11510704 0.04463447 0.36221522
0.10987389 -0.12473512 0.19459069 0.0053390376 0.046880335 0.26863837 0.037521128 -0.16670431
0.019577736 -0.12133148 -0.012958141 -0.06902839 0.10297258 -0.34386835 0.24575783 -0.015397343
-0.19747354 -0.12754413 -0.034693394 0.061469894 -0.07607092 -0.3384197 -0.2038001 -0.0020850818
-0.1522074 -0.13165611 0.2604066 -0.13131122 0.040925328 0.32486326 0.12895086 0.0032709395
0.17657518 0.04338114 -0.1651357 0.0833777 0.16452767 0.37704012 -0.15613948 0.32688665
0.05933145 0.07955094 0.09631344 0.13304101 0.31897753 0.08540107 -0.0060512708 0.24448611
-0.2785631 0.03499514 0.0774514 0.15279496 0.18953693 0.19695348 -0.058461793 -0.13157788
0.15808031 -0.075964645 0.23314266 0.1877297 -0.01778925 -0.10464933 0.23291591 -0.041362446
-0.04542058 -0.23663737 -0.10203574 -0.45717102 -0.030581152 0.10146678 -0.035675958 0.10774421
0.26117697 0.07845232 -0.3789756 0.19857141 0.16110444 -0.045833077 0.111876726 -0.06365424
0.12029433 -0.22925036 -0.2839168 -0.063075736 0.23065455 0.05233488 0.21833213 0.27150974
00000000: 0333 dc3e 3a4c 5cbb 0ada b1be 8554 bb3d
00000010: ea0e 6bbe aa26 c03e 2562 8b3e d5d1 ecbd
00000020: 1b21 20be 67b9 1b3e e996 90bd f630 7cbd
00000030: 35e5 483e 8bcd f6bd 647a 103f 96ce c33d
00000040: d994 303e 8a66 f83d f4c9 5fbd c61a 73be
00000050: b56c 24be a837 1dbf 414b 5ebe ac5d f0bd
00000060: ccf2 d6bb 641d 903e ee4c 1e3d b089 92be
00000070: a099 9bbd e590 bbbc 8be5 73be 0d6e 8cbd
00000080: da12 c53e 389d ad3d 572f a43e 22bd 6cbd
00000090: 9597 493c 2330 8ebe 92aa 02be 0f08 c7bd
000000a0: 823a 373c e398 95be b293 ffbb 11f8 843e
000000b0: 76b9 893d 3368 81bd 231f 4bbd b4fd 823d
000000c0: 2d87 55bd 3d40 c7bc abd4 033c 316d 6d3d
000000d0: 8454 9ebd d1f1 99be e740 1f3e 3fbb 823e
000000e0: f305 2a3e 7211 c53c 4400 2e3d 4c12 193e
000000f0: 258d 2bbe c511 c83e ca05 003e b142 81be
00000100: 3b11 a93d 7412 8ebd 7681 ca3d 53f4 9abe
00000110: 07e4 2ebe 1a34 223d b62e b03e 9d12 803e
00000120: b042 303e 6af7 9e3e f384 c5bd 6122 fc3c
00000130: 67a7 28be b661 9abe e171 7c3e b22f 8fbe
00000140: 94ce 433e 7b3e 29be b3ce d83d 1c3c 96be
00000150: 6d9c adbe a2fb 103d 8ae6 8f3a 3010 f1bd
00000160: 08c9 b93d 451b c8bd 85dd 84bc 05ae 76be
00000170: a620 76be eadb 7fbc 1604 9ebc 6dbc 85be
00000180: 42f6 c4bd e623 1cbe 9e72 553e 90cf 583e
00000190: d833 34bd 2cbe 58be e5fa c1be f2f1 cbbe
000001a0: bdb5 7fbb 60ea 6bbe acd4 4bbc 5eff 95bd
000001b0: 585c a1bd 02a4 89bd 3e3c 843e cedc 22be
000001c0: 8c13 223e befa 833d 2ca6 e33d f365 a3bd
000001d0: c7ae f83d d30e bc3e 3b8d 103e c91d 4c3e
000001e0: 7ce6 77be e0ae 7abe de8c 09bf ca10 29be
000001f0: 39f6 cdbd e577 9abd 41a0 6b3e 5499 63bd
00000200: afdc 183d 44f9 6e3e 32dd 28be b4ef 353e
00000210: 2103 83bb 9be2 64be a887 a83e c2fc 8d3e
00000220: 3acc d73d cc15 453e af0f 8e3e e48f 283e
00000230: 885e 23bd 08bf b6bd 8815 6b3e 9503 693d
00000240: 3c4b b43d d93f 23bf d74d 403e 7766 3cbe
00000250: c306 de3d 6e72 c23e ef2e c0bc 77f8 ba3c
00000260: 5c1b db3d e3e2 413e 9706 f83d 81d5 c2be
00000270: e823 9bbe c7e9 8b3e 5b50 83be 2c88 70be
00000280: f76a ab3d aaa6 b1be 1d65 2d3e 5cde 9abe
00000290: 1b89 853d 3dbd eb3d a2d2 363d 4674 b93e
000002a0: 9005 e13d 2075 ffbd c842 473e 18f3 ae3b
000002b0: 9805 403d f88a 893e c1af 193d 89b4 2abe
000002c0: 7d61 a03c a47c f8bd 624e 54bc c25e 8dbd
000002d0: 4ae3 d23d 830f b0be f1a7 7b3e 2345 7cbc
000002e0: 8136 4abe ee9a 02be a91a 0ebd dbc7 7b3d
000002f0: 12cb 9bbd 5945 adbe f9b0 50be dea5 08bb
00000300: 42dc 1bbe dcd0 06be 0454 853e 7376 06be
00000310: 51a1 273d 7a54 a63e b20b 043e 425d 563b
00000320: 20d0 343e 6cb0 313d 5519 29be edc1 aa3d
00000330: f179 283e 670b c13e 07e3 1fbe b05d a73e
00000340: 8905 733d 9aeb a23d fb3f c53d e73b 083e
00000350: 0651 a33e c2e6 ae3d bd49 c6bb 915a 7a3e
00000360: d39f 8ebe 1057 0f3d d79e 9e3d 4876 1c3e
00000370: f815 423e 2cae 493e a275 6fbd 5abc 06be
00000380: cedf 213e 5a93 9bbd f3bc 6e3e 373c 403e
00000390: c3ba 91bc 6352 d6bd 8281 6e3e ab6b 29bd
000003a0: ee0a 3abd 1151 72be 1df8 d0bd 5212 eabe
000003b0: 5385 fabc d1cd cf3d f420 12bd ffa8 dc3d
000003c0: fdb8 853e 9cab a03d 1709 c2be 4e56 4b3e
000003d0: 90f8 243e 77bb 3bbd a01f e53d 275d 82bd
000003e0: e05c f63d 9bc0 6abe 8b5d 91be da2d 81bd
000003f0: b530 6c3e 195d 563d 7592 5f3e 5303 8b3e

transformer_blocks.0.mla.k_proj f4 [32, 32]
-0.09003186 0.15613018 0.06979275 -0.30351642 0.42176354 -0.32610223 0.45845205 0.06566128
-0.48160276 0.0100392345 -0.22604279 -0.17149688 -0.5483364 -0.11628689 0.2699863 0.15228787
0.20605803 0.0058774147 -0.2687396 0.23954323 -0.24484983 -0.064516254 0.1222269 0.2958004
0.15694547 0.0031237565 -0.2352778 -0.00015993934 -0.21493608 -0.0350115 0.0937222 -0.5178505
-0.10356617 0.19441375 -0.1032962 0.35036463 0.30850008 -0.10856752 0.29671538 -0.20869087
-0.05102769 0.47218814 0.10911339 -0.10666026 -0.12587745 -0.39802265 0.33236796 -0.38497767
0.22218524 -0.019961018 -0.07428117 0.078665674 -0.042566594 0.01761125 -0.09102556 0.04789917
0.20824383 0.3367884 0.13288033 0.12105882 -0.34143746 0.04110355 -0.12239214 -0.43642366
0.2859537 -0.24115162 -0.11072997 -0.19990642 0.2611626 -0.3493006 0.052142702 0.3991413
-0.022569027 0.17477612 -0.45261216 -0.11174173 0.20697525 0.13354272 0.13510503 0.27001473
0.070409864 -0.053109154 0.030882208 0.21007068 -0.31895596 0.14778669 -0.029707577 -0.38672394
0.33888313 0.3097438 0.19760713 0.031567026 -0.111743756 -0.31871945 0.0010252561 -0.30871063
0.10637369 -0.14738214 -0.019565707 -0.2181558 -0.10889506 0.13470362 -0.045276705 -0.23589173
-0.005133984 0.053889155 -0.26924574 0.38008773 -0.0054820324 0.019058133 0.071236625 -0.027090346
0.043254733 0.07518733 0.36748707 -0.42459106 0.05211658 -0.055245183 -0.03210762 0.18995488
-0.38541168 0.19859669 0.2763115 -0.15162322 0.17793584 -0.46560612 -0.0624048 0.29123357
0.07416702 0.018629499 0.3323508 -0.41024852 -0.15455005 0.14680964 0.05349476 0.041436702
-0.10572084 0.022141049 -0.36397764 0.029582357 0.24728723 -0.07996713 0.16922203 0.114360854
0.11363823 0.18582709 0.28968954 -0.096386895 0.23387778 -0.08986218 0.04682088 0.22958131
-0.124184795 0.22724022 -0.0014287372 -0.008220296 -0.17163467 -0.19374458 0.21780485 0.20574233
0.09338677 -0.11643296 0.22366288 0.19717298 -0.27930167 -0.13348787 0.2190468 0.42288333
-0.085523754 -0.24632078 0.44807133 0.20438439 -0.17631328 0.49457687 -0.09318016 -0.124531634
0.07453414 0.05295659 -0.021964733 0.120126195 -0.092021585 0.26400438 0.24128267 -0.08944553
-0.37774235 -0.3115527 -0.03499891 -0.19370814 0.28972682 0.4350035 -0.029402878 -0.043652404
-0.13042529 0.21183188 -0.2717243 -0.24750368 -0.0256804 0.4193661 0.06446201 -0.10976382
-0.056603875 -0.17099558 0.3570802 -0.19586277 -0.08995165 0.09836429 0.106678024 -0.22655275
-0.013956717 0.0918318 -0.06096442 -0.31006172 0.026237044 0.08646259 -0.10199689 0.006850584
0.005297757 -0.22138253 -0.2699354 0.13720237 0.39203298 0.07485006 0.104365185 0.25317702
0.24113794 0.29869738 -0.24398126 0.034807697 -0.35213435 0.039619695 0.13738178 0.20959373
0.22446884 -0.06107342 0.12169867 0.1928083 0.06223316 -0.069905385 0.009631094 -0.29190996
0.26634452 0.058840055 0.06427822 0.057738982 -0.018979594 -8.056121e-05 0.07610209 0.33312926
0.013040021 0.1591614 0.12114854 -0.057070866 -0.22781464 0.48034814 -0.074620515 -0.1309674
00000000: a062 b8bd 97e0 1f3e 80ef 8e3d 8166 9bbe
00000010: 64f1 d73e dff6 a6be 3aba ea3e 6c79 863d
00000020: a394 f6be 9a7b 243c c377 67be e19c 2fbe
00000030: c65f 0cbf d227 eebd a53b 8a3e 5af1 1b3e
00000040: e000 533e 5497 c03b 3d98 89be d24a 753e
00000050: eab9 7abe 1921 84bd 1952 fa3d 2673 973e
00000060: 50b6 203e f0b7 4c3b aaec 70be 64b5 27b9
00000070: 3418 5cbe 3868 0fbd 6df1 bf3d da91 04bf
00000080: 801a d4bd 6614 473e f58c d3bd fe62 b33e
00000090: b9f3 9d3e a658 debd 14eb 973e 0fb3 55be
000000a0: 6902 51bd a5c2 f13e d776 df3d b270 dabd
000000b0: 05e6 00be a0c9 cbbe 222c aa3e cb1b c5be
000000c0: 8784 633e 4a85 a3bc ba20 98bd 781b a13d
000000d0: 4f5a 2ebd 7845 903c 9c6b babd ec31 443d
000000e0: df3d 553e 876f ac3e c811 083e b0ed f73d
000000f0: e4d0 aebe 325c 283d bba8 fabd ec72 dfbe
00000100: 8668 923e 73f0 76be 65c6 e2bd 45b4 4cbe
00000110: 1bb7 853e 87d7 b2be 9693 553d 405c cc3e
00000120: aee2 b8bc 83f8 323e c8bc e7be d9d8 e4bd
00000130: 52f1 533e 6cbf 083e f958 0a3e 5f3f 8a3e
00000140: 0c33 903d fc88 59bd affc fc3c c51c 573e
00000150: 324e a3be 6555 173e 4e5d f3bc ae00 c6be
00000160: 1782 ad3e bd96 9e3e 8659 4a3e 6d4c 013d
00000170: e9d9 e4bd 322f a3be e361 863a 520f 9ebe
00000180: 73da d93d 58eb 16be 4348 a0bc 3c64 5fbe
00000190: 6004 dfbd bfef 093e 1174 39bd 9a8d 71be
000001a0: fb3a a8bb e0ba 5c3d 94da 89be dc9a c23e
000001b0: 9fa2 b3bb cd1f 9c3c 82e4 913d 93ec ddbc
000001c0: e02b 313d d1fb 993d 4427 bc3e 0064 d9be
000001d0: 3278 553d c648 62bd 4883 03bd 8883 423e
000001e0: ae54 c5be ee5c 4b3e b378 8d3e 1e43 1bbe
000001f0: d034 363e ed63 eebe 2d9c 7fbd 911c 953e
00000200: e1e4 973d e49c 983c e229 aa3e 180c d2be
00000210: 5e42 1ebe 4455 163e 521d 5b3d 88b9 293d
00000220: 2b84 d8bd 2561 b53c 475b babe b356 f23c
00000230: dd38 7d3e cfc5 a3bd 8a48 2d3e 0636 ea3d
00000240: 29bb e83d 7549 3e3e 3052 943e 7e66 c5bd
00000250: a87d 6f3e aa09 b8bd 40c7 3f3d 5d17 6b3e
00000260: 9954 febd a9b1 683e 7744 bbba 6cae 06bc
00000270: 00c1 2fbe fb64 46be 3c08 5f3e 1eae 523e
00000280: 9041 bf3d 6774 eebd e207 653e b7e7 493e
00000290: a100 8fbe 0bb1 08be ce4d 603e 2a84 d83e
000002a0: 1427 afbd 843b 7cbe 9b69 e53e 244a 513e
000002b0: 788b 34be 2e39 fd3e 3dd5 bebd 710a ffbd
000002c0: 5ba5 983d 02e9 583d 62ef b3bc b904 f63d
000002d0: d075 bcbd 952b 873e ce12 773e 382f b7bd
000002e0: 7267 c1be d683 9fbe 045b 0fbd 6d5b 46be
000002f0: 1357 943e c7b8 de3e 4ede f0bc ddcc 32bd
00000300: 358e 05be 75ea 583e 731f 8bbe 9b71 7dbe
00000310: b45f d2bc 27b7 d63e a904 843d dbcb e0bd
00000320: 77d9 67bd 7719 2fbe 37d3 b63e 4090 48be
00000330: 9238 b8bd 3873 c93d 027a da3d 72fd 67be
00000340: b7aa 64bc 5012 bc3d d4b5 79bd 69c0 9ebe
00000350: 12ef d63c 4c13 b13d bfe3 d0bd dd7a e03b
00000360: cf98 ad3b 1ab2 62be f934 8abe c77e 0c3e
00000370: 8cb8 c83e fd4a 993d 6abd d53d 6ba0 813e
00000380: ddec 763e ddee 983e 39d6 79be 8492 0e3d
00000390: f44a b4be 4348 223d cfad 0c3e bd9f 563e
000003a0: 29db 653e 1f28 7abd 273d f93d 8a6f 453e
000003b0: 33e8 7e3d 8e2a 8fbd bccb 1d3c 3975 95be
000003c0: 4f5e 883e 4502 713d 4da4 833d b67f 6c3d
000003d0: 187b 9bbc f8f2 a8b8 6adb 9b3d eb8f aa3e
000003e0: d0a5 553c 35fb 223e ba1c f83d 24c3 69bd
000003f0: 3e48 69be 31f0 f53e a4d2 98bd 511c 06be

transformer_blocks.0.mla.v_proj f4 [32, 32]
-0.0011150747 -0.13251722 0.11082669 -0.22122802 -0.033793304 -0.30549857 -0.10959914 0.093138635
0.113840126 -0.0633741 -0.093524545 0.14003608 0.2116046 -0.017859712 -0.081515 -0.31577018
-0.1576958 0.14854135 -0.33424282 -0.35262272 0.22144823 0.23137693 0.30255857 -0.2650305
-0.22473225 -0.06211735 0.19596237 0.12326314 -0.25900683 0.084772415 0.08344618 -0.11587865
0.017391223 -0.54841226 -0.060678653 0.26542452 0.22148277 0.04160735 -0.3162582 0.08150573
0.016104344 -0.049768027 -0.19138843 0.10457883 0.25495243 0.05797948 -0.17011571 -0.0073333546
0.003613146 0.20602211 0.019551506 -0.023224276 -0.24938126 -0.35202464 -0.039527684 -0.10792274
-0.02154844 0.0925748 0.073458895 0.16340593 -0.100159585 0.13938157 0.13726027 -0.03585546
0.275749 0.05326874 -0.17509316 -0.28739083 -0.0028420272 -0.025873352 -0.06533089 0.072306536
0.16882914 -0.15714756 0.09475458 -0.024803415 -0.16939248 -0.23665307 0.061685387 -0.021664612
0.120494165 -0.085523695 -0.44926727 -0.042986624 -0.054896135 0.33075768 0.037036568 -0.032223076
0.0019200572 -0.35449678 0.0237774 -0.05598354 0.1415335 -0.25643036 0.17046925 -0.045340054
-0.23297279 0.030753748 -0.12265503 -0.14708109 -0.15030238 -0.0152464295 0.10374938 -0.2720645
-0.19895217 -0.22293024 0.2045667 0.10462446 0.21321703 -0.3200234 0.2911209 0.06948308
0.047737177 -0.00066347956 0.14152582 0.14079194 -0.12954195 0.09814279 -0.017270787 0.18408197
0.054718465 0.02644814 0.16500998 -0.06848188 0.11164306 -0.05813328 0.04672874 -0.50385094
0.0007270501 -0.09142395 -0.31575367 0.27244368 0.11210391 -0.012134727 -0.25151178 0.027843075
0.1689873 0.15443672 0.15031461 -0.031669244 -0.26850104 -0.15316357 -0.03678953 0.07692026
0.122520946 -0.03759967 0.0156039605 0.33462963 -0.102993526 0.0002816053 -0.28823864 -0.15513608
-0.20337361 -0.10180854 -0.3414654 0.41136935 -0.2975627 0.21158656 -0.045137953 0.28850585
0.2544812 -0.0877618 -0.116609074 0.117016554 -0.22912925 0.082890294 0.034302898 -0.03430576
0.39532652 0.00784254 -0.20763575 0.27247873 -0.27325007 -0.061119445 0.049024053 0.2796663
0.18550155 0.07611099 0.0341973 0.12549563 -0.18361229 -0.09205364 -0.1397198 0.025033839
0.03318966 0.29061317 0.0063608666 0.18710887 0.1009543 -0.058899995 -0.26513368 0.16245702
0.13924879 -0.031834446 -0.049990628 0.097637214 0.047535725 0.3429739 -0.19566377 0.20951362
0.22632502 0.19206074 -0.035643224 0.2407586 -0.020069566 0.034127787 0.040887296 -0.35028973
-0.27896935 0.080982745 0.027610289 0.040280245 -0.05260479 -0.1469532 -0.031025954 0.2791157
0.031111533 0.19004032 0.30458313 0.15711755 0.13693358 -0.1358416 -0.36384 0.17594196
0.2343354 0.14245464 0.18038894 0.059103634 0.10482854 0.15006204 -0.07771572 -0.0036109549
-0.1814901 0.28519434 0.108502716 -0.08302739 0.30501613 -0.040438596 -0.08385822 -0.26696157
-0.4907298 -0.016451202 0.36327177 0.047443874 0.034431744 0.25246772 -0.20624872 -0.10527282
-0.23694122 -0.09779045 -0.020172307 0.015976513 0.20602877 0.0056679463 -0.21698092 -0.29719523
00000000: b327 92ba 98b2 07be 1bf9 e23d 9989 62be
00000010: d96a 0abd 4f6a 9cbe 8475 e0bd 78bf be3d
00000020: 0325 e93d 48ca 81bd cc89 bfbd 9e65 0f3e
00000030: e0ae 583e 884e 92bc 56f1 a6bd a1ac a1be
00000040: 027b 21be 391b 183e e021 abbe f78a b4be
00000050: 53c3 623e 13ee 6c3e f5e8 9a3e 14b2 87be
00000060: 3620 66be c36e 7ebd 5caa 483e 6371 fc3d
00000070: 8b9c 84be 299d ad3d d5e5 aa3d c951 edbd
00000080: 0a78 8e3c bf64 0cbf 2e8a 78bd b9e5 873e
00000090: 61cc 623e 786c 2a3d 98ec a1be 7aec a63d
000000a0: 42ed 833c 8fd9 4bbd 54fb 43be 6d2d d63d
000000b0: 2089 823e e47b 6d3d d032 2ebe a34c f0bb
000000c0: 88ca 6c3b 76f7 523e 7b2a a03c d640 bebc
000000d0: cd5d 7fbe 933c b4be c8e7 21bd 9906 ddbd
000000e0: 5b86 b0bc db97 bd3d 9e71 963d e253 273e
000000f0: 7820 cdbd 0bba 0e3e f58d 0c3e 2ddd 12bd
00000100: f92e 8d3e 5330 5a3d 9f4b 33be e424 93be
00000110: 4e41 3abb 5af4 d3bc 34cc 85bd 7315 943d
00000120: 8ce1 2c3e 4aeb 20be b00e c23d 8830 cbbc
00000130: 3975 2dbe 2f55 72be d1a9 7c3d fc79 b1bc
00000140: a5c5 f63d 0c27 afbd 5c06 e6be be12 30bd
00000150: c5da 60bd 1259 a93e a8b3 173d 58fc 03bd
00000160: 6eaa fb3a 9a80 b5be d2c8 c23c ff4e 65bd
00000170: 28ee 103e d74a 83be 7e8f 2e3e 7eb6 39bd
00000180: 6b90 6ebe 49ef fb3c 8f32 fbbd 6d9c 16be
00000190: dee8 19be 29cc 79bc 8e7a d43d 0a4c 8bbe
000001a0: 1eba 4bbe d347 64be ef79 513e 5945 d63d
000001b0: 9155 5a3e 1bda a3be cc0d 953e 254d 8e3d
000001c0: 0f88 433d 5ced 2dba 25ec 103e c32b 103e
000001d0: a5a6 04be 16ff c83d 777b 8dbc fc7f 3c3e
000001e0: 7820 603d c5a9 d83c 60f8 283e 3a40 8cbd
000001f0: 1ea5 e43d 2a1d 6ebd a366 3f3d 60fc 00bf
00000200: 8297 3e3a 7b3c bbbd 77aa a1be bd7d 8b3e
00000210: bc96 e53d bcd0 46bc 27c6 80be 2917 e43c
00000220: 020b 2d3e a924 1e3e 13ec 193e 9cb7 01bd
00000230: f878 89be e9d6 1cbe 9eb0 16bd 5f88 9d3d
00000240: 43ec fa3d 1d02 1abd c1a7 7f3c 9354 ab3e
00000250: 45ee d2bd 6ca4 9339 0494 93be fedb 1ebe
00000260: 2c41 50be ff80 d0bd 8ed4 aebe 019f d23e
00000270: 235a 98be 26aa 583e 93e2 38bd 0ab7 933e
00000280: 5c4b 823e 75bc b3bd bdd0 eebd 60a6 ef3d
00000290: dca0 6abe 63c2 a93d 3281 0c3d 3284 0cbd
000002a0: 3d68 ca3e ff7d 003c 779e 54be 5582 8b3e
000002b0: 6fe7 8bbe 6258 7abd 72cd 483d 6c30 8f3e
000002c0: 1ef4 3d3e 14e0 9b3d 7812 0c3d ed81 003e
000002d0: dc04 3cbe 9e86 bcbd b512 0fbe c413 cd3c
000002e0: e2f1 073d 40cb 943e d16e d03b 7899 3f3e
000002f0: 21c1 ce3d 1f41 71bd 9abf 87be 225b 263e
00000300: 3c97 0e3e d664 02bd f9c2 4cbd 05f6 c73d
00000310: d2b4 423d 469a af3e 155c 48be bd8a 563e
00000320: bfc1 673e 92ab 443e a1fe 11bd 6c89 763e
00000330: ee68 a4bc 94c9 0b3d 7079 273d 2d59 b3be
00000340: 12d5 8ebe 48da a53d f92e e23c e6fc 243d
00000350: 1f78 57bd e67a 16be 242a febc 41e8 8e3e
00000360: 9ddd fe3c ee99 423e 52f2 9b3e 6ce3 203e
00000370: 5138 0c3e 0f1a 0bbe 3d49 babe 212a 343e
00000380: 9ef5 6f3e a1df 113e e1b7 383e a716 723d
00000390: 58b0 d63d dda9 193e 6b29 9fbd c5a5 6cbb
000003a0: 8ad8 39be fe04 923e ac36 de3d 440a aabd
000003b0: 132b 9c3e f1a2 25bd dcbd abbd 30af 88be
000003c0: f040 fbbe acc4 86bc c2fe b93e 8254 423d
000003d0: 4d08 0d3d 7343 813e dd32 53be 4799 d7bd
000003e0: b8a0 72be 5c46 c8bd 6540 a5bc 2de1 823c
000003f0: 35f9 523e 2eba b93b 3f30 5ebe f929 98be

transformer_blocks.0.mla.o_proj f4 [32, 32]
-0.3788098 -0.069892935 -0.118970506 0.36468056 -0.11681792 -0.05287207 0.31244197 0.29941958
0.017829828 0.01397815 0.09057046 0.11884806 -0.1610137 0.2019513 -0.19245255 -0.11363769
0.06267683 -0.08620476 0.21818176 -0.22572465 0.09795691 -0.1564841 0.07247576 -0.21078195
-0.0444585 0.3840719 -0.31133726 0.13102582 0.22599044 0.005213039 0.19640374 0.17886944
0.25390157 -0.01026488 0.08815061 -0.009437177 -0.08101993 0.01685341 -0.2677225 0.16823305
-0.08268358 -0.13183063 0.07768336 0.25071684 0.04543003 -0.28035235 -0.24494617 0.12992671
0.14460662 0.19485822 -0.34123886 -0.062364936 -0.059444927 0.29293635 -0.061766274 0.034735966
0.048827246 -0.08489785 -0.08242096 0.09367523 -0.09314351 -0.20057282 0.1124252 -0.21739236
-0.102366485 0.01720537 -0.2938874 -0.1758983 0.04558076 0.2361433 -0.043196227 -0.04433126
0.089544296 -0.06507423 -0.22314997 -0.24822417 -0.08713384 0.04457091 0.1909442 0.34167492
-0.0259308 0.08895962 0.0033349404 -0.04369077 0.3682901 0.15375559 -0.04457386 0.0141700925
-0.44598466 0.37742114 0.09300424 -0.07432825 0.08672081 0.11010728 -0.11227328 0.051182892
-0.08189568 0.32048208 0.006911082 -0.008415544 0.084011026 -0.054557182 -0.00785515 -0.18346402
0.002074171 0.1485057 -0.14065069 0.16765247 0.12262675 0.061544877 0.19429927 0.014212516
-0.09729414 0.016678698 0.16968244 -0.03996813 -0.41688344 0.054032467 0.30528378 -0.01544066
-0.0604136 -0.13212073 -0.30463752 0.13138783 -0.12268615 -0.051451445 -0.30618405 0.109528884
-0.2232686 -0.3024871 0.054295614 -0.06276983 -0.25109372 0.2570626 0.076858975 0.20101671
0.06603473 -0.03848751 -0.14865294 -0.05238477 -0.15816925 -0.07909318 -0.07123435 0.121295914
0.39293632 -0.05524817 -0.2973655 0.0078085302 0.19153339 -0.032771982 0.13938463 0.21297772
0.13460386 -0.04743956 0.35841206 0.044311155 0.07399452 0.17040692 0.24149464 0.14741828
0.11306792 -0.13257842 -0.22991656 0.03323559 0.5123913 0.18049882 -0.08963751 0.31395543
0.2435897 -0.19914538 0.17253597 -0.071576655 0.1631709 0.06532406 -0.1594269 -0.21503174
0.13985276 -0.1210487 -0.20504504 -0.1553602 0.035475023 -0.040592942 -0.14168103 -0.1393362
0.18340719 -0.1606848 -0.016365752 0.092876114 0.17322071 -0.23093507 -0.15861785 0.005801511
-0.155459 -0.11793297 -0.075456284 0.23055193 -0.079124086 -0.06942867 -0.20593734 -0.15912798
0.13373306 -0.11968206 0.06724633 0.21590461 0.15852214 -0.07200166 0.028766684 -0.23483773
0.15821269 -0.26904148 0.35192364 0.12728027 -0.28779915 -0.0041015265 0.05776064 0.074344166
0.076461434 -0.12647988 -0.12517808 0.009791925 0.19011882 -0.12198796 0.10174553 -0.2548992
0.20901807 -0.20398922 0.071389906 -0.2673543 0.130388 -0.114678584 0.11693006 0.092296526
-0.11902355 0.00064366154 -0.024985632 0.1291669 0.07266833 0.10006975 -0.12844738 -0.070219636
-0.17259473 0.19808778 -0.24303278 -0.185036 -0.07268568 -0.2560922 0.28847438 -0.14300795
-0.031618908 0.19390912 -0.09332036 -0.06343427 0.13495605 0.1697091 -0.0249147 -0.048900902
00000000: 5cf3 c1be 0724 8fbd cfa6 f3bd 69b7 ba3e
00000010: 3c3e efbd 6290 58bd 65f8 9f3e 864d 993e
00000020: dc0f 923c 9c04 653c 017d b93d 9d66 f33d
00000030: c6e0 24be 52cc 4e3e 4812 45be e1ba e8bd
00000040: b65c 803d 1f8c b0bd 0a6b 5f3e 5d24 67be
00000050: a29d c83d 5e3d 20be 2c6e 943d 39d7 57be
00000060: 1e1a 36bd 12a5 c43e 9967 9fbe a22b 063e
00000070: 0a6a 673e 24d2 aa3b 101e 493e 8d29 373e
00000080: 63ff 813e 072e 28bc 4f88 b43d 649e 1abc
00000090: c7ed a5bd 2a10 8a3c ec12 89be 4945 2c3e
000000a0: 0256 a9bd 9cfe 06be 7418 9f3d f55d 803e
000000b0: d714 3a3d 588a 8fbe 2bd3 7abe 820b 053e
000000c0: c213 143e ea88 473e dcb6 aebe 6072 7fbd
000000d0: 867c 73bd c1fb 953e a2fe 7cbd 4d47 0e3d
000000e0: 14ff 473d edde adbd 52cc a8bd cdd8 bf3d
000000f0: 06c2 bebd f662 4dbe 2f3f e63d 1a9c 5ebe
00000100: 85a5 d1bd 47f2 8c3c 6978 96be af1e 34be
00000110: e4b2 3a3d 8dcf 713e 87ee 30bd b294 35bd
00000120: 0063 b73d a345 85bd 6d81 64be 7a2e 7ebe
00000130: 3a73 b2bd fd8f 363d e086 433e 04f0 ae3e
00000140: d46c d4bc 7630 b63d 048f 5a3b 18f5 32bd
00000150: 8590 bc3e 1b72 1d3e 1493 36bd ad29 683c
00000160: 1a58 e4be 583d c13e 0279 be3d 6939 98bd
00000170: ae9a b13d ed7f e13d 89ef e5bd 27a5 513d
00000180: ecb8 a7bd 3a16 a43e 5c76 e23b 5ae1 09bc
00000190: f90d ac3d 5a77 5fbd e3b2 00bc fedd 3bbe
000001a0: d1ee 073b e111 183e bc06 10be 17ad 2b3e
000001b0: bc23 fb3d 7b16 7c3d 63f6 463e 9ddb 683c
000001c0: 2642 c7bd c4a1 883c 3cc1 2d3e 9fb5 23bd
000001d0: bf71 d5be 2651 5d3d 284e 9c3e d2fa 7cbc
000001e0: 4074 77bd a84a 07be 73f9 9bbe 888a 063e
000001f0: e042 fbbd c0be 52bd 28c4 9cbe ae50 e03d
00000200: 86a0 64be 97df 9abe 1465 5e3d 788d 80bd
00000210: 5b8f 80be b69d 833e 3d68 9d3d 53d7 4d3e
00000220: 373d 873d 14a5 1dbd 7a38 18be 6a91 56bd
00000230: 1ff7 21be 9bfb a1bd 51e3 91bd fe69 f83d
00000240: f32e c93e e84b 62bd 4a40 98be b3de ff3b
00000250: 5421 443e ea3b 06bd d8ba 0e3e d516 5a3e
00000260: 98d5 093e fc4f 42bd c981 b73e 9d7f 353d
00000270: 708a 973d 277f 2e3e 5f4a 773e d1f4 163e
00000280: 2790 e73d a3c2 07be 3f6f 6bbe 0b22 083d
00000290: 142c 033f afd4 383e df93 b7bd c4be a03e
000002a0: 946f 793e c4ec 4bbe 45ad 303e c896 92bd
000002b0: 4616 273e 9fc8 853d ce40 23be 4831 5cbe
000002c0: 9035 0f3e 61e8 f7bd 54f7 51be bf16 1fbe
000002d0: 424e 113d c944 26bd d514 11be 26ae 0ebe
000002e0: 18cf 3b3e 8e8a 24be 7811 86bc d535 be3d
000002f0: c560 313e 3e7a 6cbe b86c 22be 9a1a be3b
00000300: a530 1fbe d786 f1bd d388 9abd ce15 6c3e
00000310: cf0b a2bd 9e30 8ebd 3de1 52be 72f2 22be
00000320: 52f1 083e de1b f5bd 72b8 893d 1916 5d3e
00000330: a153 223e 9b75 93bd 1ca8 eb3c 4d79 70be
00000340: 8202 223e cebf 89be 562f b43e c255 023e
00000350: 695a 93be 1966 86bb 6c96 6c3d c141 983d
00000360: d097 9c3d f183 01be af2e 00be 4f6e 203c
00000370: 82ae 423e d3d4 f9bd f65f d03d 2682 82be
00000380: d508 563e 8de2 50be df34 923d aae2 88be
00000390: 6f84 053e 9bdc eabd 0779 ef3d f605 bd3d
000003a0: 9ec2 f3bd 65bb 283a abae ccbc 5444 043e
000003b0: 22d3 943d 5ef1 cc3d b687 03be 50cf 8fbd
000003c0: acbc 30be 86d7 4a3e 96dd 78be 147a 3dbe
000003d0: 3bdc 94bd 841e 83be eab2 933e ad70 12be
000003e0: d482 01bd 1d90 463e bf1e bfbd d4e9 81bd
000003f0: eb31 0a3e 39c8 2d3e ea19 ccbc 504c 48bd

transformer_blocks.0.norm1.g f4 [32]
1.009643 1.0321085 1.0271387 0.9623398 0.96357375 1.0594527 0.9901934 1.0014021
0.98924893 1.0698705 0.94853884 1.0227504 0.9826527 0.9327033 0.9588383 1.0110989
1.0026665 0.9189901 1.0078657 0.97996604 0.940243 0.99371004 0.9451148 1.0259053
1.0599989 1.0774735 0.9635649 1.0032692 1.035033 1.0468968 1.0369774 0.9726146
00000000: fb3b 813f 221c 843f 4879 833f e75b 763f
00000010: c5ac 763f 259c 873f 517d 7d3f f22d 803f
00000020: 6b3f 7d3f 84f1 883f 71d3 723f 7ce9 823f
00000030: 218f 7b3f a5c5 6e3f 6d76 753f b06b 813f
00000040: 6057 803f ef42 6b3f be01 813f 0edf 7a3f
00000050: c4b3 703f c863 7e3f 0bf3 713f dd50 833f
00000060: 0bae 873f a7ea 893f 30ac 763f 206b 803f
00000070: f67b 843f b700 863f adbb 843f 45fd 783f

transformer_blocks.0.norm2.g f4 [32]
1.08077 1.0535483 1.0514256 1.0045333 1.0333217 0.99185324 1.0821445 1.0358063
1.0257806 0.91441077 0.9992048 1.0654734 1.0610567 1.1299423 0.96619666 0.98705435
1.0002822 1.0055418 1.0255082 1.0053234 1.0026257 1.0373067 0.9779758 1.0285059
1.0669571 0.9708273 0.95272213 1.0536494 1.04059 0.9883219 0.9914604 1.034942
00000000: ac56 8a3f acda 863f 1d95 863f 8c94 803f
00000010: e343 843f 18ea 7d3f b683 8a3f 4d95 843f
00000020: c74c 833f d316 6a3f e3cb 7f3f 6f61 883f
00000030: b5d0 873f f3a1 903f aa58 773f 98af 7c3f
00000040: 3f09 803f 98b5 803f da43 833f 70ae 803f
00000050: 0a56 803f 77c6 843f 9f5c 7a3f 15a6 833f
00000060: 0d92 883f 2388 783f 99e5 733f fcdd 863f
00000070: 0e32 853f aa02 7d3f 59d0 7d3f fb78 843f
