assignment1-basics/cs336_basics/checkpoints/checkpoint_epoch2.pt (torch, 614054 bytes, 63 tensors)

transformer_blocks.0.ffn.w1 f4 [128, 32]
00000000: d6a8 00be c3e9 c73d 914e 373e d28d 5fbe
00000010: 0157 02bd 6c22 983d 1cd4 943e 221d 22be
00000020: 4921 c03d b267 41bc 175a e33b c043 e6bd
00000030: 444a 34bc 0fc3 3f3d e374 e5bc b26c 69be
00000040: eaa1 46be 0599 c0bc 175e b8bd 8d1f d3b9
00000050: 6979 8fbd f6fe 0dbe d637 aebd 8dac 133e
00000060: 1f9e b13d de84 f5bd c458 54bd b01a 01be
00000070: b4f2 f13b 05e9 573e b23c 8fbc bcd0 a93d
00000080: dce3 0c3e d530 69be aaec 59be b26e 8e3e
00000090: c42e f63d 1464 323e 7807 af3d 0908 a8bd
000000a0: 24e6 0abe 012e aa3d dbff 1ebe 07e7 c2bd
000000b0: 27ae 8a3e 1685 1abe ec4a 963d b3cc 5c3d
000000c0: ef2b 1c3c 9ef0 b93b f421 2ebe f9ca 083d
000000d0: c0e3 8bbe ad33 afbd 38fe e03c 25ed ac3d
000000e0: bf4a 793d dfc7 dfbd 3a29 e03d dc86 bd3d
000000f0: d90c 963b 2435 393e a3e1 e5bd 86d1 72bc
00000100: 0a9e 48be d514 153d 3940 863d 7d9e 013e
00000110: 796d 08be 9304 b3bd 97d1 163c aa60 113c
00000120: 41a8 4f3e 393b 48be ac15 363d b173 5ebe
00000130: 4ad4 963e 2850 88bd fd9d 8fbe acb2 833b
00000140: f39d 5e3d 833f 9a3b f170 b4be c9fb 073b
00000150: f3bb 8e3e 6663 d2bd 09f0 d6bd 0f15 88bd
00000160: 3efd 383c 2025 8d3d 1ad7 1bbe ed52 553b
00000170: cc78 283e e1c7 913e 917a f1bc 5159 743e
00000180: 65f3 54be 7b19 2f3d afc7 ccbe e8a0 9fbb
00000190: 8e43 87bd 4352 70bd 8469 ccbd 59b3 25bd
000001a0: 88f4 57be b50d b23c cae3 4f3d 443d 44be
000001b0: db25 21be d51a 0fbe bb71 1e3e eaee 71bd
000001c0: 80ff e5bd 548d 1cbe ec80 91be 22d2 183d
000001d0: 7f85 9bbc 5913 8c3d 314a e83d e191 32bd
000001e0: 8385 c5bc 1556 5c3e 34af 6e3d cf22 7a3c
000001f0: c71b a9bd 0c2f 1fbc b7fe 8b3d d835 663c
00000200: 94a7 073e 541b cb3d 4d96 0bbc 40e3 343e
00000210: ee0b 80bd f014 20be 89a9 1d3d e437 273e
00000220: 1f1d 8dbe e8ec 19be 8c7e a8bb cae8 05be
00000230: e4f5 4abd f78a ac3d e93c 0e3d 05d0 233e
00000240: 8aa4 273e 1f5b 1fbe 7b6c f03d bac1 e53d
00000250: 18e7 59bd 886f afbd 56ef 683d e768 9c3c
00000260: 29ad b63d ce34 353c cae7 4b3e 782b a33c
00000270: 624c 2e3d ff8b 0a3d 8e01 09be f161 b9be
00000280: f890 1f3d 2726 193e 261a b3bd 1157 37be
00000290: 7279 373d c39c b0bd 021e 183e c6c3 953d
000002a0: 6cf1 a8be aac3 ae3d f20c 753e 28ab 8b3e
000002b0: b2b7 d4bd b402 843d aa66 3c3e d3b9 af3d
000002c0: 7d8d 4bbe da72 b5bd bd44 763d 206d b5bd
000002d0: daaa 94bc 0965 06be 618f bdbd e93b 313a
000002e0: 9835 003d 1c79 113e 4a5b 58bd a8ea fbbd
000002f0: 23c1 dcbe e59c 703b 228b 11be 8631 d4bd
00000300: 4d39 68bd 7ee8 b8bd acfc 63be f253 6fbd
00000310: 844d 74be 7e18 88bd b804 b3bd a263 88bd
00000320: adb7 a33e d7f1 97bd b192 573d fc64 19bc
00000330: fa26 94bd 4772 abbe f659 0d3e 87eb aa3e
00000340: c33c b3bc 19dc acbe fc08 b73e 61eb 353e
00000350: 40ac 69bd 8af4 cd3c 353d 0f3e c07c d2bb
00000360: 1c61 a4bc eab1 2d3e a294 653e 3a38 af3e
00000370: 874f c13d fd90 013e ff77 533e 3fcb 7fbe
00000380: 913e b0bd 011f c43d 1260 28be 2780 103e
00000390: 1561 baba 78cd 22b8 8aa9 f23d 405d 4e3e
000003a0: ff66 e63c 3e79 debd b414 1a3d aedd d93d
000003b0: 6a45 803e e92b 113e 287d 203d 6382 4cbe
000003c0: d4d8 14be 5aaf 1a3e eac4 033e f271 c7bd
000003d0: cfa4 3ebe 173b 33be 54e8 23be e69b a63d
000003e0: 6b3e 4ebe ef9c 903c bec4 8a3d 784b 11be
000003f0: 1d43 ae3d 702e d5bb 5c46 77bc f48b 4bbe
-0.12564406 0.097613834 0.17901064 -0.21831444 -0.031821255 0.074284405 0.29068077 -0.15831426
0.09381349 -0.011804508 0.00693823 -0.11243391 -0.011004034 0.04681688 -0.028009837 -0.2279537
-0.19397703 -0.023510465 -0.09002321 -0.00040268563 -0.07005579 -0.13866791 -0.085067436 0.14421292
0.08672737 -0.11988233 -0.051842466 -0.12607837 0.007383669 0.21084984 -0.017484996 0.08291766
0.13758796 -0.22772534 -0.21281686 0.2781883 0.120206386 0.1742099 0.085463464 -0.082046576
-0.13564354 0.08309556 -0.15527289 -0.09516721 0.27085993 -0.15089831 0.07338509 0.053906154
0.009531959 0.0056744358 -0.1700514 0.033396695 -0.27322197 -0.08554778 0.027464971 0.08443669
0.0608623 -0.10926794 0.10945363 0.09254238 0.0045791683 0.18086678 -0.112246774 -0.014820462
-0.19591537 0.03639682 0.06555218 0.12658115 -0.1332301 -0.08741107 0.009205244 0.008873144
0.20279028 -0.19553842 0.04445426 -0.2172382 0.2945884 -0.066559136 -0.28050223 0.004019102
0.05434985 0.004707278 -0.35242417 0.002074944 0.2787777 -0.10272865 -0.10495002 -0.066446416
0.011290846 0.06891847 -0.15218773 0.0032550648 0.1645233 0.28472808 -0.02947739 0.23862197
-0.20795973 0.04274891 -0.39996096 -0.0048714764 -0.06604682 -0.0586722 -0.09981063 -0.040454242
-0.21089375 0.021735052 0.050754346 -0.19163996 -0.15737097 -0.1397508 0.15473072 -0.059065737
-0.112303734 -0.15288287 -0.28418672 0.037309773 -0.018984554 0.06839628 0.11342276 -0.043596152
-0.024111515 0.21517213 0.058272555 0.015267088 -0.08257251 -0.009715807 0.068356924 0.014050923
0.1324752 0.09917322 -0.008519721 0.17664814 -0.062522754 -0.15632987 0.03849176 0.16329914
-0.2756128 -0.15031779 -0.0051420387 -0.13077083 -0.049550906 0.08424943 0.034726057 0.15997322
0.1637136 -0.15562104 0.11739441 0.11218591 -0.053198904 -0.08566195 0.056868874 0.01909299
0.089197464 0.011059953 0.1991264 0.019918188 0.042553313 0.033824917 -0.133795 -0.36207536
0.038956612 0.1495596 -0.08745222 -0.17904307 0.044793554 -0.0862365 0.14855197 0.073127314
-0.3299669 0.08533414 0.2393072 0.2727902 -0.103865996 0.06445828 0.18398538 0.08580365
-0.19878192 -0.08859797 0.060124148 -0.088587046 -0.018147875 -0.1312448 -0.09255863 0.00067609415
0.03130111 0.14206356 -0.052821435 -0.123006165 -0.43116102 0.003671461 -0.14213231 -0.10361008
-0.05669527 -0.09028719 -0.22264355 -0.058429666 -0.23857695 -0.066452965 -0.087411344 -0.066596285
0.3197607 -0.07419174 0.05263013 -0.009362455 -0.07233997 -0.33485624 0.13803849 0.33382818
-0.02187956 -0.3376167 0.35749042 0.17765571 -0.057049036 0.02514102 0.13988192 -0.0064235628
-0.020065837 0.169624 0.2241998 0.34222585 0.09438997 0.12652965 0.20651244 -0.24979876
-0.086056836 0.09576226 -0.16442898 0.14111386 -0.0014219607 -3.8815167e-05 0.11848743 0.2015276
0.028125284 -0.10862969 0.0376174 0.10637985 0.2505296 0.14176907 0.03918186 -0.19971614
-0.14535838 0.15105954 0.12868086 -0.0973853 -0.18617557 -0.1750301 -0.16006595 0.08135204
-0.20140998 0.017652957 0.06775807 -0.14188945 0.085088946 -0.00650578 -0.015092459 -0.19877607

transformer_blocks.0.ffn.w3 f4 [128, 32]
00000000: 49e9 70be 5bef 55be 6bd2 453d ba65 0e3e
00000010: 566e babd dd60 99bd 058a e6bd a1af 0a3e
00000020: ed80 c03a c363 36bd 6487 33be fd8e c53d
00000030: 3b83 acbe 53ce e23d 796b 243b 708a 113d
00000040: 5132 323d bb8a 293e 1efa 25bd 4ddb f63d
00000050: 34d8 c0be e9dc a1bd 592c 963d d3cd 52be
00000060: 4b5c 1ebe 4c02 4abd b957 df3d 8a22 54be
00000070: 1627 24bd 6b02 45be 19c2 4a3e 044b 163e
00000080: c692 f43c 79b8 97be 9841 63bd d943 cabb
00000090: 43cc d83b f61d c4bd 90fe 913d 9087 e7bc
000000a0: 810d 7b3c 824c b7bd 3b52 d3ba cd07 06be
000000b0: 2b06 b73c 323d 363e 14be 093e 95f4 383d
000000c0: 7586 e8bc f5a4 b03d c6fa 82bd 94df adbd
000000d0: 00d2 14be 19a4 8bbe bc7b 47bc ad5e 3ebd
000000e0: c12f fdbc c029 3abb e807 b33d 3811 0cbe
000000f0: f84b 83bc 3c4a 133d ad24 bdbd d640 95bc
00000100: 1599 4f3d 63e1 d43d a0ba 54bd c54b 80bd
00000110: 5d7d e6bd feba 00be 7d48 42bc 389b 5ebe
00000120: 7e8e fabd debe c63d 2d09 26be ae4b cc3d
00000130: 1231 a5be e4f3 d2bd de36 033e 0ec2 9a3c
00000140: 7fcd f13d 0a8c 07be 4b19 0cbe 899c 97be
00000150: ffb2 09be 1d90 71bc ce29 4fbc 539a 113e
00000160: 3ca8 8f3b 31af 87bd fad5 0f3d 3915 2dbd
00000170: 5413 ffbd 6764 c53c da20 7b3d 35ff aebe
00000180: 9518 61bd e382 52be b6e8 b73c c3fb c73c
00000190: 31b6 b23d 342e 36be 8591 4a3e aeb2 8abc
000001a0: 1c94 f8bb 1a84 b7bd 8386 91bd 0e92 71bd
000001b0: 1b67 e3bc e89a e3bb 8576 0d3e 65e3 44be
000001c0: ec77 c3bd e629 b83c 45ae d8bd 5da2 b23c
000001d0: 86b3 f5bd 6af5 063e 8ce9 b5bd 7a62 99bd
000001e0: 2ccd 233e 9b70 20be b4b5 393d f96f 1f3e
000001f0: 28bd 0dbd eca0 45bc fddb b83d b43e d6bb
00000200: 8da7 adbb c2ab 98bd 6762 293d 13b8 b0bc
00000210: 2af7 19be 9435 01bc 71bf a63d 68d1 c03c
00000220: 6dd5 6b3d b6e1 adbd 4e89 963d f42b 2ebe
00000230: 59de 9c3c 07a0 44bc 328a fabd 909a 373d
00000240: 41fe 263e 31af a1bb 747a f1bd b2b7 18bc
00000250: 3793 3bbd d8dd e33d d7eb 37be e99f f23d
00000260: 10a9 5c3e db15 14bd f228 c6bc 7cef 1cbd
00000270: f240 c23d f6e2 67be 1d27 223e 8153 113e
00000280: 876e 123d 81e4 76be 32db 55be b5ca 303e
00000290: 5dcf 073e cad0 6b3d c50e 6bbd 91a3 35bb
000002a0: 4547 41bd caa3 b53b 99ad 353d 37f4 46bc
000002b0: 908c a9bb 3eee 0c3e 5c9d 34bd 6a6c 673e
000002c0: cf6b f83d 2136 aa3e 84f5 423e d6d6 85be
000002d0: f30c 85be f029 08be aa54 553d bc74 38bd
000002e0: 5e8c a63d 5f74 553e fa55 3bbc ec29 493d
000002f0: fd51 f73d 0fd5 1abe 95a2 b1bd 8b0c 76bd
00000300: a63f 84be 62fe f43d 53eb 0ebe cade cbbd
00000310: 79cb 0b3d 3cc1 f9bc 1cac 4f3e 0418 a0be
00000320: 9cfc c73d e71f 40be 2e7d c43e b8af 223e
00000330: f30f 623c c10a 58be a562 6f3e 4c63 933d
00000340: 4490 153e ae0a 2cbe 96dc 76bc 1ab2 06bc
00000350: 33e2 cdbd 61f5 79be 2e91 a3bb c43f fbbd
00000360: c927 ce3d b53d 13be 0b77 463d 0386 283e
00000370: fa89 133e 7e5b 413d b7ef 363e 5dca c33a
00000380: b44c 36be f36b e0bb fb27 823d 00f7 da3d
00000390: 687b ccbd 7236 11be c80d 15be 8d51 133e
000003a0: 6227 01be f30d 89bc 13ed 28be f790 043e
000003b0: 73f4 0a3e ee4a 383e 9382 1bbd b630 6c3e
000003c0: ca24 97be 619c 0abe 2047 82bd 610a ae3d
000003d0: b842 04be 1c0f 19be b01a 30be 36b7 a9be
000003e0: 465f 173e 11e8 9a3d 6fd0 813e df6d d5bc
000003f0: 159a fc3d 1ace 16be a5a7 ea3d 167a bfbd
-0.23526491 -0.20892088 0.048296373 0.13905993 -0.09103076 -0.07489178 -0.11256794 0.1354356
0.001468686 -0.044528734 -0.17532116 0.096464135 -0.3369387 0.110745095 0.0025088473 0.035532415
0.043505017 0.16556828 -0.040521733 0.12053547 -0.3766495 -0.079034634 0.073326774 -0.20586328
-0.15464894 -0.049318597 0.10905404 -0.207163 -0.040076338 -0.19239204 0.19800605 0.14677054
0.029855143 -0.2963293 -0.055482477 -0.006172639 0.006616147 -0.09576027 0.07128632 -0.028262883
0.015323044 -0.089501396 -0.0016122529 -0.13088913 0.022341808 0.17796782 0.13451415 0.045155127
-0.028384427 0.08625213 -0.063954875 -0.0848991 -0.14533234 -0.27273634 -0.012175497 -0.04647701
-0.03090656 -0.0028406233 0.08741742 -0.13678443 -0.016027436 0.035959467 -0.09235511 -0.018219393
0.0506831 0.103945516 -0.051935792 -0.06264452 -0.1125438 -0.12571332 -0.011858103 -0.21738899
-0.122342095 0.09704374 -0.16214438 0.09975372 -0.32264 -0.10300425 0.12813899 0.01889136
0.118067734 -0.13237014 -0.13681524 -0.29611614 -0.13447188 -0.014743832 -0.012644244 0.14219026
0.004384069 -0.06625212 0.035116173 -0.042256568 -0.124548584 0.024095727 0.061310627 -0.34179083
-0.054955084 -0.20557742 0.022449832 0.024412042 0.087261565 -0.17791063 0.19782074 -0.016930904
-0.0075860154 -0.08960743 -0.07105734 -0.05897718 -0.027759125 -0.0069459565 0.13814743 -0.19227369
-0.09544358 0.022480916 -0.10580114 0.021805936 -0.11997132 0.13179556 -0.08882436 -0.07489486
0.15996236 -0.15667956 0.0453393 0.15570058 -0.03460422 -0.012062293 0.090263344 -0.0065382365
-0.0052995146 -0.07454635 0.04135361 -0.021572148 -0.15035692 -0.007886309 0.08141983 0.023537353
0.057576586 -0.084903166 0.073504075 -0.17008954 0.019148992 -0.012001044 -0.1223339 0.044825137
0.16307928 -0.0049342145 -0.11790934 -0.00932114 -0.045794692 0.11126298 -0.1796106 0.11846907
0.21548867 -0.036153655 -0.024189446 -0.038314328 0.094850436 -0.22645172 0.15835233 0.1419201
0.03574994 -0.24110605 -0.20884398 0.17264827 0.13262697 0.057572164 -0.057387132 -0.0027715901
-0.04718711 0.005543207 0.04435501 -0.012143186 -0.005174227 0.13762757 -0.044095382 0.2259995
0.12129938 0.33244422 0.1903897 -0.2614047 -0.25986442 -0.13297248 0.052082695 -0.0450332
0.08132242 0.20845173 -0.011434073 0.049112245 0.12076185 -0.15120338 -0.08673588 -0.060070556
-0.2582981 0.11962582 -0.13956957 -0.09954603 0.034129594 -0.03048765 0.20280498 -0.31268322
0.09764978 -0.1876217 0.38376755 0.15887344 0.013797748 -0.21097852 0.23377474 0.07196674
0.14605814 -0.16800949 -0.01506724 -0.008221174 -0.1005291 -0.24410011 -0.004991672 -0.12268022
0.10066182 -0.14379008 0.048453372 0.16457371 0.14408103 0.047206394 0.17864881 0.0014937628
-0.17802697 -0.006848806 0.06355282 0.10691643 -0.099844754 -0.14180925 -0.14556038 0.14386578
-0.1261268 -0.016730284 -0.16496687 0.12945925 0.13569812 0.17997333 -0.037966322 0.23065457
-0.29520255 -0.13536216 -0.06361222 0.08498073 -0.12916076 -0.1494717 -0.1719768 -0.3314759
0.14782438 0.075637944 0.25354335 -0.026053367 0.12334076 -0.14727059 0.11457757 -0.09349458

transformer_blocks.0.ffn.w2 f4 [32, 128]
00000000: 3c17 493c 84a5 113b 6d30 813e 503d a03d
00000010: 6b42 323e 60f6 8abe b01c 06be ae47 4fbd
00000020: bfe9 9fbd 2c9d acbc f45b a23d d912 98bd
00000030: 930c 8dbd 07b1 0fbe 8d1c 713c de99 e33d
00000040: ae30 5e3d 3fb0 cb3d c5ff 7cbd a7d1 b13e
00000050: 2cb0 153e c375 6bbd 204c aabc 2b18 863d
00000060: 0992 403d c04c 51be 2627 2ebd faee 343d
00000070: 5643 a1bd a378 dabd 9508 c6bd 05ff f2bd
00000080: 6f16 183d 8325 ce3d 590d e4bd e48a 093d
00000090: d3df d93d 48d5 17bd 2cb6 3d3d f236 55bd
000000a0: 6d2e 75be 36c0 47bd b55a 1d3e f759 24bd
000000b0: 3e7b 9d3a 772b 7b3e 7b83 24bd 7e11 12be
000000c0: 6779 81ba e644 e63d 6049 1f3c 98fc b5bb
000000d0: 0b57 e4bd ac16 043d baa8 00be 2524 eabd
000000e0: c049 af3d 44c6 d03c 4668 1cbe e864 223b
000000f0: a116 1dbc b10e c2bd 4368 9e3d f0e0 25bd
00000100: edcb da3d 0b14 43be 87d9 0fbc e3eb a3bd
00000110: a6d8 11bd c74f 473e 74fd 8cbd 3f8e 55bd
00000120: fd14 a0bd f997 493e 7641 0abe 3d2e 8fbc
00000130: bcd0 41be f403 833c ca20 86be d99a eebb
00000140: b50a c5bb 74aa 7ebe 7921 afbd 38e2 41be
00000150: 93d9 02be 0646 1d3d 97c1 00be 323c f7bd
00000160: e933 7ebd c2c3 9d3d 36a6 163d a463 81be
00000170: a50d 95bc 2ca1 5bbc 5c78 c03e 602b 783d
00000180: 4407 afbc 34d8 a13c 6949 453d 33f2 053a
00000190: 3b57 9fbd 1f99 173e 9002 053e 84a7 bf3c
000001a0: ca24 ddbc d257 1ebd b4d3 7dbc 0978 c4bd
000001b0: 5f32 b3be 30cb 313e 7526 bf3d 7075 143d
000001c0: d4f2 2fbe df68 493d d55b 3c3e abeb c4bd
000001d0: 6202 c7bd 02d1 84be cf2f ad3d b2b0 0e3d
000001e0: 1a8a 19be 61bc 1fbb e096 11be ab88 86bd
000001f0: 8e89 84be 7c9c 173d 78eb 4fbe 2c34 b1bd
00000200: 6834 ed3c 7dfe b83d 9550 4a3d 94a7 36bd
00000210: cbed 993d a3ae 11bd 4a81 e53d 5e68 7ebe
00000220: 623d 273e 8fcf 8a3c 83a7 90bb 69ee cdbd
00000230: e150 28be 6c7d fcbd 48cb a8bd 4501 9d3e
00000240: ae05 3e3d 6ca8 aabd 0acf b13d 02e9 f73c
00000250: 1b3d dc3d 27fe 61be e6c0 3dbe ec8a 003e
00000260: 060b d4ba 3637 6dbe 554c 2abd 66c7 a0be
00000270: 7b0d 013e 4011 203c 0c0d 53be bda6 473e
00000280: 2bb8 0fbe 76c5 0d3d 8a0b d23d a3ed 46bd
00000290: af93 043e 9381 9a3a 86db 163e 76fb 95bd
000002a0: fc80 4e3e fcee 13bd 8c9c 553d 1330 f9bd
000002b0: d607 443e 05c7 3c3e 983b febc 98f6 88be
000002c0: af9c e03d 7c64 053e 6690 e43d e2c9 ebbd
000002d0: 61eb a63e 2d4e 473e 6eb1 d33d fa74 ce3d
000002e0: cd9f 72be 75df a43d d155 8fbd b177 c0bd
000002f0: 59ae 253d 14f2 78be e70f e23d 75f6 983d
00000300: 7e31 9fbe 9d85 3c3d e24c b5bd 961f 923b
00000310: 60d8 b5bd 00ee d73c 3880 163e c3e2 35bd
00000320: 128c 8c3e 8b33 163e eb39 663e 2506 f9bc
00000330: b640 8cbc 198c fbbc 29b0 613e f190 a5bc
00000340: 9562 98bc 8649 85bd 3a64 e03d 18da c6bd
00000350: 726b 1dbe 8cf0 7c3c 8cdd 1fbe e1c9 cf3d
00000360: ad76 d5be 5887 de3d b79c aa3e c95a 623d
00000370: 635e b13c 60e6 fcbd aa9d dc3d 1972 fd39
00000380: 95b0 6f3d 925e 0b3c a852 143e c566 92be
00000390: 533a aebd 1f5f bc3d e132 9cbd 5ead 30bd
000003a0: 9fa0 ac3d a831 3c3d a86a cfbc fe73 7cbe
000003b0: cee0 36bd 2d61 e1bd 1dc0 c3bd 520e 91be
000003c0: b6b4 243e 3bd7 323e 457c 323e a440 99be
000003d0: 2ff0 16bd 45e4 123e b933 163e 7387 85bd
000003e0: b529 21be a1fc 85bd 69da 613d 738f b9be
000003f0: 1845 82bd 2663 babd 586c 3d3c 36c1 0c3e
0.012273606 0.00222239 0.25232258 0.078241944 0.17408149 -0.27141094 -0.13096881 -0.05060547
-0.078082554 -0.02107104 0.07927695 -0.0742547 -0.06887164 -0.14032374 0.01471628 0.11113332
0.054245643 0.09945726 -0.06176736 0.34730265 0.14617985 -0.057485353 -0.020788252 0.065475784
0.04701427 -0.20439434 -0.042517804 0.04417322 -0.078741714 -0.10667541 -0.09669606 -0.11865047
0.03713077 0.100657485 -0.11135358 0.033579722 0.10638394 -0.037068635 0.04631631 -0.052054353
-0.23943491 -0.04876729 0.15366633 -0.04012486 0.0012014878 0.245283 -0.040164452 -0.14264485
-0.00098781 0.1124361 0.009722084 -0.005553793 -0.11149415 0.032248184 -0.12564364 -0.11432675
0.085589886 0.025485165 -0.15274152 0.0024779383 -0.009587915 -0.094754584 0.0773473 -0.04049772
0.10683427 -0.19050615 -0.00877989 -0.08003976 -0.035607003 0.19464026 -0.0688428 -0.05213761
-0.07816503 0.19686879 -0.13501534 -0.017478103 -0.18927282 0.015993096 -0.2619689 -0.007281643
-0.0060132393 -0.2486971 -0.08551306 -0.18933952 -0.1277831 0.038396858 -0.12573849 -0.12072028
-0.062061224 0.077033535 0.036779605 -0.25271332 -0.018194983 -0.013405126 0.37591827 0.06058824
-0.02136577 0.019756414 0.048165713 0.0005109638 -0.0778031 0.14804505 0.12989259 0.023395307
-0.026995081 -0.03865797 -0.0154923685 -0.095932074 -0.34999368 0.17362666 0.09333507 0.03624481
-0.17182475 0.04917228 0.18394406 -0.096152626 -0.09717251 -0.2594071 0.084563844 0.03483648
-0.14994088 -0.0024373757 -0.1421771 -0.06569036 -0.25886196 0.03701447 -0.20304668 -0.08652529
0.028955653 0.09032915 0.049393255 -0.04459341 0.075160585 -0.035566937 0.112063006 -0.248445
0.1633201 0.016944675 -0.0044145 -0.10055239 -0.16437103 -0.1232861 -0.08241898 0.3066503
0.046392135 -0.08332905 0.08682068 0.030262474 0.107538424 -0.22069608 -0.18530616 0.12552994
-0.0016177602 -0.23165593 -0.041576702 -0.3140213 0.12602799 0.009769738 -0.20610446 0.194972
-0.14035098 0.03461214 0.10256107 -0.04856647 0.12946962 0.0011787884 0.14732179 -0.07323353
0.20166391 -0.036116585 0.052151248 -0.121673726 0.19143614 0.18435295 -0.031034276 -0.26750636
0.10967385 0.13026613 0.11160354 -0.115131155 0.32601455 0.19463415 0.103365764 0.10080905
-0.23693772 0.080504335 -0.0699879 -0.09397829 0.040449474 -0.24311095 0.110381894 0.07468883
-0.31092447 0.04602586 -0.08852555 0.0044593317 -0.08879161 0.026358604 0.14697349 -0.04440571
0.27450615 0.146681 0.22483031 -0.030398438 -0.0171207 -0.030706452 0.22039856 -0.020210715
-0.018601695 -0.06508164 0.10956617 -0.09709567 -0.15373018 0.01543821 -0.15611857 0.10145927
-0.41692105 0.108656585 0.3332269 0.05526236 0.021651452 -0.12348628 0.107722595 0.0004834093
0.05851801 0.008506434 0.14484656 -0.28594032 -0.08507218 0.091978304 -0.07626892 -0.043134086
0.084290735 0.045945793 -0.025319412 -0.24653623 -0.044647984 -0.11004863 -0.09558127 -0.28331238
0.16084561 0.17464916 0.17430218 -0.2993213 -0.03685015 0.1434489 0.14668168 -0.065199755
-0.15738566 -0.06542326 0.055139933 -0.36242256 -0.06360835 -0.09100942 0.011561476 0.13745579

transformer_blocks.0.mla.q_proj f4 [32, 32]
00000000: 3379 fa3e c443 333d f44c babe 5205 043e
00000010: 6234 52be 6ca9 c73e 59af 853e f5f6 b4bd
00000020: a83d d0bd 7c78 3b3e e77d 94bd f490 b93b
00000030: 2701 743e 6dd2 05be cd76 263f a751 113e
00000040: ba67 653e 78a1 243e bbb1 b73c 6565 58be
00000050: 8ebc 35be 442b 33bf be41 47be 33e0 eabd
00000060: 6c96 91bd 85d5 a33e d059 9d3d ec7f 78be
00000070: f40d 94bd 8a28 83bd 9402 a0be 8ceb 39bd
00000080: 4679 d63e 5177 0f3e 1772 b33e 46a4 8fbd
00000090: e985 343d 5dba 93be cf38 08be baae c9bd
000000a0: 2dcd 443d fcd9 7fbe 49c6 c43c f943 9e3e
000000b0: e1ed d23d 991c b1bd 68c8 213d 3435 c33d
000000c0: 2263 8abd 6e12 8cbc 9569 823d ad35 bd3d
000000d0: caf1 86bd 28ed b1be d180 3e3e 8498 9b3e
000000e0: 0f6c df3d 4c7e 213d 9fd1 f73c b37b 433e
000000f0: 61b3 3fbe 310c cd3e 8c85 ab3d b526 8fbe
00000100: 650e 823d 1baa 8fbd d6cc 033e f4ed a5be
00000110: 9b28 2cbe 08f7 ac3c cdfd c43e ed27 8d3e
00000120: 6a03 123e 6c5b 953e 2b76 eebd 54ae 023d
00000130: 0023 31be ebbb 97be dbd5 4e3e 53fa 90be
00000140: 2abe 4e3e d9e8 2dbe 8042 a33d 3942 adbe
00000150: 7848 b8be 516f 553d e3c3 1bbd 6924 0bbe
00000160: 3ccf 0e3e d1db febd 5cc2 c5bc d335 89be
00000170: 5e64 78be 1556 dfbc 2c27 583b 112e 8dbe
00000180: 8162 61bd d858 8ebd a79b 713e 5e9c 253e
00000190: 0c5c a4bd 91e6 2ebe 41c0 cabe ad62 abbe
000001a0: 2f0b 9a3c 4140 04be ae02 57bc ef14 383b
000001b0: a32e 203d e313 1dbe 9bab 7d3e c1ae 69be
000001c0: 0ba5 113e bebe bf3d e73b 353e 138d 1fbd
000001d0: 6adf f33d 651a a03e eb51 323e e306 813e
000001e0: 3e6a aabe 26b7 36be 8483 00bf ff31 e1bd
000001f0: 5da1 10be db0b 9ebd b804 313e 2fa3 00bd
00000200: 4848 af3c 2226 683e 0415 3ebe 6fca 453e
00000210: 0285 a63b ca06 3fbe dc86 ad3e 6771 8a3e
00000220: b4bc b43d a8a4 353e 8fcc 803e 5a96 113e
00000230: e8eb 8e3b 459d 45bd c58a 413e 3f97 b63c
00000240: 2845 953d 72f9 1ebf 7190 473e febc 3ebe
00000250: 6a5d e73d 3053 ce3e e74a 0fbd 603b d33b
00000260: 5bad bf3d 2df6 603e af91 0e3e 98c5 c7be
00000270: 7e1c 94be 418a 8d3e 337b 5abe 1281 24be
00000280: 262b 953d 8ca4 b2be 9a49 543e d11d b5be
00000290: efb9 153d 8b23 ce3d 7577 a5bb 20de be3e
000002a0: 3fe0 023e c7e4 debd 7f04 603e 2c79 bd3c
000002b0: 5ab9 893d 5a81 683e f357 dd3c 422a 3abe
000002c0: 3262 d1bc db03 fbbd da3c 973c 6355 72bc
000002d0: fcff 073e 4378 a1be 596c 923e 5ec6 1c3c
000002e0: 321b 84be 2f4d 12be 62d8 3fbd 0326 bc3d
000002f0: 9047 30bd 32a9 a2be 9833 31be d4e8 fe3c
00000300: fbb2 0cbe a8b5 e0bd 8102 8b3e 943b 29be
00000310: 90ac 953c 1f72 a73e 9001 b63d 0046 80bc
00000320: b994 3b3e 7b3a a13d 6b25 19be 3731 ab3d
00000330: 94b7 de3d eedc a53e 42cd 06be 9aa8 9d3e
00000340: d3cd 663d 1c13 2b3d 2019 d03d d727 2d3e
00000350: 599d 9c3e 7865 cc3d 65c0 50bb 8210 8b3e
00000360: 11ec 9fbe b3d1 eb3c 5424 983d ebbf 2e3e
00000370: dfca 403e 580a 6a3e 624a 48bd cbb6 08be
00000380: 465b 3a3e cea1 f1bd 93a8 343e 3b9a 7d3e
00000390: b26b c83c 6375 fbbd 80c5 503e 52a8 86bc
000003a0: 8b66 0abd e7fc 9ebe 8e57 e8bd 3463 eabe
000003b0: fe32 12bd eff0 3f3e 742a dfbb 87b5 493e
000003c0: 359c a13e c755 093e d46c cfbe 386e 463e
000003d0: 2fcd 1a3e 8808 b8bd a833 e63d 630d 05be
000003e0: 265a 283e 51ef 56be 9ef5 8dbe 6079 85bd
000003f0: 87d0 883e 6532 873b 8cfb 3f3e 9112 953e
0.48920593 0.0437658 -0.36386836 0.12892655 -0.20527795 0.38996446 0.26110342 -0.08836166
-0.1016801 0.1830768 -0.072505765 0.0056630317 0.23828565 -0.13068552 0.65025026 0.14191304
0.2240285 0.1607722 0.022423616 -0.21132429 -0.17747709 -0.69987893 -0.19458672 -0.11468544
-0.07108769 0.3199884 0.07683146 -0.24267548 -0.07229224 -0.064042166 -0.31251967 -0.04539065
0.418894 0.1401036 0.3504798 -0.070137545 0.04407302 -0.2885312 -0.13302921 -0.098477796
0.048047233 -0.24985498 0.024020331 0.30911234 0.10299278 -0.08648033 0.039497763 0.09531632
-0.06757189 -0.017098632 0.063677944 0.092387535 -0.06589086 -0.34751248 0.18603827 0.30389798
0.109092824 0.039427087 0.030251322 0.19090156 -0.18720771 0.40048364 0.083750814 -0.2795922
0.06350402 -0.07014867 0.12871107 -0.32408106 -0.16812365 0.021113887 0.38474885 0.27569523
0.14259115 0.29171312 -0.116436325 0.031904534 -0.17298508 -0.29635558 0.20198767 -0.28315982
0.2018973 -0.16983356 0.07971668 -0.33839586 -0.3599279 0.052108113 -0.03802861 -0.13588108
0.13946241 -0.124442704 -0.02414053 -0.26798877 -0.24257037 -0.027262727 0.0032982333 -0.27574208
-0.05502558 -0.06950539 0.23594533 0.1617293 -0.08025369 -0.17080142 -0.39599803 -0.3347372
0.01880416 -0.12915136 -0.0131231975 0.002808865 0.039106976 -0.15339617 0.24772494 -0.2282057
0.14223115 0.09362553 0.17698632 -0.0389529 0.11907847 0.31270137 0.17414062 0.25200567
-0.3328418 -0.17843303 -0.50200677 -0.10995864 -0.14124055 -0.07717105 0.17286956 -0.031405624
0.021396771 0.22670797 -0.18562704 0.19315504 0.0050817737 -0.18654934 0.33891952 0.27039644
0.08825055 0.17738593 0.25156066 0.14217511 0.0043616183 -0.048245687 0.18900593 0.022288917
0.07288581 -0.62099373 0.19488694 -0.18626782 0.11297114 0.40297842 -0.03498354 0.006446287
0.09359237 0.21968909 0.13922761 -0.3901794 -0.28927988 0.27644542 -0.2133606 -0.16064861
0.072836205 -0.34891164 0.20731202 -0.3537431 0.036554273 0.10065373 -0.005049641 0.37278843
0.12780856 -0.108834796 0.21876715 0.023129068 0.06724806 0.22705594 0.027019477 -0.18180183
-0.025559518 -0.12256595 0.018461633 -0.014790866 0.13281244 -0.31537065 0.28598288 0.009568779
-0.25801998 -0.14287256 -0.046837218 0.09186938 -0.043036997 -0.3176971 -0.17304838 0.03111688
-0.1374015 -0.10972148 0.27150348 -0.16526634 0.01827076 0.32704255 0.08887017 -0.015658379
0.18318452 0.078724824 -0.1495568 0.08358996 0.108748585 0.32395118 -0.13164237 0.30792695
0.056348633 0.04176627 0.10161042 0.16909729 0.30588797 0.09980291 -0.0031852957 0.27161032
-0.31234792 0.028786516 0.07428804 0.17065398 0.18827389 0.22855508 -0.048899062 -0.1335098
0.1819888 -0.1179844 0.17642431 0.24765866 0.024465416 -0.12278249 0.2038784 -0.016437683
-0.0337892 -0.31052324 -0.11344825 -0.4577881 -0.03569316 0.18744253 -0.0068104807 0.19698153
0.3156449 0.13411628 -0.40512717 0.19377983 0.15117334 -0.08986002 0.112403214 -0.12993388
0.16440639 -0.2098973 -0.27726454 -0.06517291 0.26721594 0.0041258805 0.18748301 0.29115728

transformer_blocks.0.mla.k_proj f4 [32, 32]
00000000: 3df0 92bd 9edf 3d3e 6b77 f73d 941c 99be
00000010: 9401 e93e 3cb3 aebe f265 f33e 2e9f 723d
00000020: c851 f2be f2bd d1bb 9d6c 40be 48f9 5dbe
00000030: d123 06bf c783 a9bd 41d4 9d3e 26a2 413e
00000040: a3f1 413e 2ea3 0d3d 9ac5 84be b5a4 8e3e
00000050: 38b1 53be 5926 d2bd f14d 263e 2203 9d3e
00000060: 97db 6c3e 3bd2 933d efb9 89be e8e9 1e3d
00000070: f3e1 8bbe 9c40 c6bc c147 413d ab26 0abf
00000080: 92ff d9bd 97fc 463e 0010 2fbe da55 b23e
00000090: bfac b33e 869c b8bd 22f0 9a3e 32f7 49be
000000a0: 1d17 b8bb eeee 0a3f 0281 873d 91ea afbd
000000b0: 61b9 54be 8117 edbe f441 ac3e f62c d8be
000000c0: bf05 8a3e 56da d2bc 3602 febd 7bd2 983d
000000d0: f8c7 bdbd 6cdc 9f3c edd7 19be ce8c 603d
000000e0: 9b20 433e 0642 a33e eddc 1e3e c7e4 253e
000000f0: 8b89 ccbe 59cf 783d aa01 18be eced efbe
00000100: a950 7b3e 7858 92be 7514 b5bd f4fe 4abe
00000110: f4a4 8c3e 8c1e 97be ddf6 543d 18c4 a53e
00000120: 0f80 3bbd 12d1 553e f99b 05bf c3f8 0fbe
00000130: df37 dd3d d1e5 ac3d 328d 083e 6cc4 643e
00000140: 42df 133d 1377 c6bd bf92 d4bc d9c5 723e
00000150: c15d b3be 34ee 433e d11d 7abd 857d c1be
00000160: e7f3 a03e 0ae0 8d3e 0029 713e b8e7 1a3d
00000170: b459 cdbd f04a a2be 7860 a5bb c95a a5be
00000180: e7f6 a63d a28f 23be 19fa 313d 5e3b 5bbe
00000190: a909 bbbd 158c 913d 56c0 dabc 3400 80be
000001a0: d08a 8e3c b45a c9bb d65f 59be a0ac c33e
000001b0: f43b 523d c334 633d 5ca8 d53d a23c 0d3d
000001c0: ed59 8bbc 0fc6 643d 4b7f ce3e ddf7 e3be
000001d0: 8635 f23d 6154 80bd ea09 4d3c b5f8 613e
000001e0: 2491 bcbe 1543 2c3e 531b 683e 2cb7 23be
000001f0: 6467 413e bd11 edbe 6ced 08bd ced9 8b3e
00000200: 357d 843c a9d9 25bd b113 b73e 907e b2be
00000210: 7dd6 f9bd 505f 113e edfa 473d 1647 31bc
00000220: 619a cbbd 89b1 1dbd f48a c0be 0f82 623c
00000230: 5721 563e 2312 51bd fc99 4a3e d0a8 293e
00000240: f2fe f13d 9825 243e 1cd5 943e 2727 a2bd
00000250: 82d6 793e 77a7 8abd b48b 7b3d 5b80 553e
00000260: 5304 10be 717e 2f3e 9569 8f3c 8abc cebc
00000270: b73d 07be 6364 68be 9598 813e aa0c 633e
00000280: fc1b 0b3e 7669 b3bd d3d6 4e3e 20bf 623e
00000290: 6bae 9cbe 9e5a 1bbe 182e 783e 3a3d f33e
000002a0: 9547 cebd 27f5 8ebe baeb e93e 138b 5f3e
000002b0: 2114 c3bd 6c29 0a3f acb5 e3bd 4aa2 dcbd
000002c0: 8c74 dd3d 1d36 9b3d 59b8 91bb afd0 963d
000002d0: f49d c5bd 8f3d 6d3e a86e 6c3e b0eb b5bd
000002e0: 11fd aebe 60c2 91be 2588 31bd 2d59 6abe
000002f0: b89d 953e 9593 dd3e 8f40 cebc d250 b9bc
00000300: bbd1 b3bd 8b73 623e 87cd 94be 7547 4cbe
00000310: e908 99bc 58e3 c33e 8208 3a3d 5dfc a2bd
00000320: 813e 72bd ff67 6dbe 93b0 b93e 8a4c 52be
00000330: 658b 29bd 2f80 083e 2252 043e b762 28be
00000340: e79d 5b3d 5644 ef3d 4b55 d7bc bdf0 98be
00000350: 2f1f c13c 0b4b 953d 4077 bbbd 539f 27bd
00000360: 121a 593d 26ad 30be 20e9 90be 0334 ee3d
00000370: d382 e83e a829 b43c 506d dc3d 0282 9c3e
00000380: 1a6c 6b3e 54e1 a83e db5f 73be f4de 94bc
00000390: 8c86 b9be a3de 6c3d 7170 203e 8b62 683e
000003a0: 2e7a 633e a751 3b3c 7499 e63d 892e 533e
000003b0: 0c29 343d bf3d f6bd 0762 35bd 261d babe
000003c0: 3578 7e3e c16d 673d 5d13 233d c389 6a3d
000003d0: 23de 99bc cf87 b33b e037 9e3d a172 b53e
000003e0: 4f32 123b 34ae 1e3e 2551 f93d 3e19 21bd
000003f0: 9d13 98be 1094 023f aa2b c1bd aba1 40be
-0.07174728 0.18542334 0.12083324 -0.29904616 0.45509017 -0.3412112 0.47538716 0.059233837
-0.4732802 -0.006400817 -0.18791433 -0.21677125 -0.523984 -0.08277088 0.30826 0.18909511
0.18939833 0.03457945 -0.25932008 0.27860036 -0.20673072 -0.102612205 0.1624067 0.30666453
0.23130642 0.07217833 -0.2689967 0.03879729 -0.27320823 -0.02420073 0.04718757 -0.5396525
-0.10644449 0.19432293 -0.17095947 0.34831125 0.35092732 -0.090142295 0.30261332 -0.19723204
-0.0056179897 0.5427083 0.06616403 -0.08589662 -0.20773841 -0.46306995 0.33644068 -0.42221802
0.2695751 -0.025738876 -0.124027655 0.07462021 -0.09266657 0.019514285 -0.15023775 0.05482178
0.19055407 0.3188631 0.15513964 0.16200553 -0.39948687 0.060744617 -0.14844385 -0.46861207
0.24542488 -0.2858312 -0.088417925 -0.1982382 0.274696 -0.29515493 0.05199324 0.3237617
-0.045776423 0.20880535 -0.5219112 -0.14059739 0.10801672 0.084422715 0.13335112 0.22340554
0.036101587 -0.0969068 -0.02594888 0.23708285 -0.35032466 0.19133836 -0.06106359 -0.37791076
0.31436083 0.2770999 0.23550797 0.03781864 -0.10026875 -0.31697798 -0.0050469004 -0.32295826
0.08152562 -0.1597276 0.043451402 -0.21409366 -0.09132702 0.07106797 -0.026703041 -0.25000155
0.017400175 -0.006144846 -0.21227965 0.3821764 0.051326707 0.05547024 0.104325026 0.034481652
-0.017010653 0.055852946 0.40331492 -0.44525042 0.11826615 -0.06266094 0.012514571 0.2206753
-0.36829484 0.16822465 0.22666673 -0.15987843 0.18887097 -0.46302596 -0.03342955 0.2731461
0.016172985 -0.04049078 0.3575721 -0.34862185 -0.121991135 0.14196515 0.048823286 -0.010820171
-0.09941555 -0.03849939 -0.37606013 0.013824954 0.20911156 -0.051042687 0.19785303 0.16568303
0.11816205 0.16029966 0.2906884 -0.07917624 0.24398234 -0.06770223 0.06141253 0.20849745
-0.1406415 0.17138077 0.0175064 -0.025236387 -0.13207136 -0.22694544 0.25311723 0.221728
0.13584894 -0.087603495 0.20199136 0.22143221 -0.3060182 -0.15171286 0.24236333 0.4750765
-0.10072247 -0.2792141 0.45687658 0.21830396 -0.09525324 0.53969455 -0.111186355 -0.10773142
0.10813245 0.07578681 -0.004447025 0.07364022 -0.09649268 0.23168014 0.23089087 -0.088828444
-0.3417745 -0.2846861 -0.04334273 -0.2288558 0.29221892 0.4327666 -0.025177268 -0.022621546
-0.08780237 0.22114389 -0.29063055 -0.19949134 -0.018681007 0.38259387 0.04541827 -0.07958291
-0.05914164 -0.23184203 0.36267528 -0.2053701 -0.041392703 0.13330148 0.12921956 -0.16443907
0.053617384 0.11682956 -0.026285788 -0.2987117 0.02357444 0.07289704 -0.091536045 -0.040923428
0.05300338 -0.17253551 -0.2830286 0.11631014 0.4541231 0.02199252 0.10763037 0.30567938
0.22990456 0.32984412 -0.23767035 -0.018172719 -0.36235464 0.05782951 0.15667893 0.22693841
0.22214577 0.011433042 0.112597376 0.2062322 0.043984458 -0.12023496 -0.04428294 -0.36350363
0.24850543 0.056501154 0.03981339 0.057260286 -0.01878268 0.005478836 0.07725501 0.35439017
0.0022307818 0.1549614 0.1217368 -0.039330713 -0.29702464 0.51007175 -0.094321564 -0.18811671

transformer_blocks.0.mla.v_proj f4 [32, 32]
00000000: 81bb 9bbc 561f 0fbe f3cd ff3d b79d 6dbe
00000010: e7d0 0bbd 8f79 9dbe 5e18 d4bd 0498 b03d
00000020: e57b f73d 3274 6ebd 1f51 c0bd 8f7e 173e
00000030: d156 4f3e 99b4 afbc a4af b2bd 98a1 a3be
00000040: 84ac 33be d96e 0f3e 2535 a7be 08cd b4be
00000050: cbb2 673e 9a47 743e a4c3 9b3e aaed 83be
00000060: b850 74be 2693 98bd d152 453e 0ef8 033e
00000070: 8718 77be 14dd b73d 4161 b93d c11e ebbd
00000080: 409a 6c36 03fc 12bf 8072 c5bd 4117 8c3e
00000090: 31c6 573e af71 f83c 01ef aebe a20b d73d
000000a0: de6c 2d3c aa8a 91bd e175 41be dd81 a73d
000000b0: 9e3c 923e 02fe 803d ac4e 44be bd38 d0bc
000000c0: 601d 393c 3101 553e c64d 0cbc 988a 46bd
000000d0: cc0f 68be 7d98 a3be 9435 3fbd 42a8 d6bd
000000e0: 9d48 6c3b e544 8a3d a62b 8c3d 42a8 1b3e
000000f0: 0331 febd 1f47 0e3e 5b89 313e 0630 dbbc
00000100: 24cc 953e 8e57 1e3d 7471 5abe 4e75 85be
00000110: 1ff0 43bc 289c b93a d88f a2bd 3a43 b33d
00000120: 698f 003e 87fd 2ebe ec80 8a3d bf58 40bd
00000130: 2b9e 3abe ae0b 62be 3c89 2b3d 4e6d f3bc
00000140: 53d9 0f3e 842f 9cbd d835 fabe 6fe4 94bd
00000150: 09d8 8fbd d281 b83e 63c1 263b 762c 7bbd
00000160: 3e51 083d d0e5 bebe eacc 1c3d 8764 afbd
00000170: a283 083e 9927 7ebe 5ffa 453e 22c5 29bd
00000180: 5979 61be 4124 0e3d 6361 bfbd faf0 1ebe
00000190: 669c 27be ef1a d7bc d7af df3d d430 91be
000001a0: f9ff 58be 19b2 59be fbbc 513e e545 de3d
000001b0: ed28 6c3e f145 abbe fb9e 973e 6981 683d
000001c0: 582e 103d e157 8dbc fcf9 f83d 1b6c 183e
000001d0: 657b 0dbe a494 943d 9f1a 8abc 82bf 523e
000001e0: 22b9 8c3d 164e 3e3d bc16 223e baed 9dbd
000001f0: 937a c63d 3a4c 2ebd b7af 513c 8a93 07bf
00000200: f3c0 553c c33f 98bd 94b7 a1be 27e4 903e
00000210: 6c76 c03d fd31 243c 6674 8ebe 24da fa3c
00000220: 7894 283e 9487 093e f404 203e 6a20 cbbc
00000230: 4a22 88be 2260 05be 6beb cfbc b2fd fa3d
00000240: 3856 0b3e 9002 81bc 7edc 393d d885 ae3e
00000250: 6d05 cbbd 72fa 0dbc 6fb3 88be f2f5 39be
00000260: 07bd 63be a88c dbbd c20c a3be 119b d53e
00000270: cec7 84be 8496 363e 94d4 21bd 21fd a13e
00000280: 9dce 7a3e a4c2 83bd 1300 f7bd 3a93 b83d
00000290: 9bd5 6cbe 20a5 8e3d 9db2 893c e597 8ebc
000002a0: 7d3d de3e 8003 703c e697 36be 06eb 973e
000002b0: f6c8 98be 5005 8dbd 4eb0 4b3d 324d 963e
000002c0: bc65 503e dfca a83d c3e3 5e3d 80f7 0c3e
000002d0: 9cec 3cbe a7c2 c1bd 5ea1 f6bd 50ec 793c
000002e0: d6e9 663c 3466 913e c2d6 113c 9812 623e
000002f0: 4e34 d93d 889f 6cbd bd11 87be 7a2c 293e
00000300: a309 033e d229 3fbc 41b9 0dbd 3545 c63d
00000310: 741e bf3c f99a a93e dc86 45be 9dc9 513e
00000320: 4e8a 613e ac55 303e 3d90 e5ba c67c 693e
00000330: c3d3 fb3b afc1 2e3d 05b6 3a3d 6462 9fbe
00000340: 2c88 87be 4a89 9c3d 6001 403d 90b1 2e3d
00000350: 954a f8bc 245b 1ebe 9cb9 9bb9 d40d 923e
00000360: 152d 5c3d c4fa 473e 8287 973e 46e5 113e
00000370: 8542 103e 2ef3 09be 3b89 b8be 6862 303e
00000380: 9d3b 723e 9d4c 2a3e 4dbb 743e 3fc1 0b3d
00000390: 9ee8 073e 9bb0 113e 4791 84bd bb33 c9bb
000003a0: 67e4 1bbe 8fc5 9b3e 1902 f63d b078 43bd
000003b0: 995a 9a3e 396c 41bd caee 61bd 699d 7fbe
000003c0: a690 05bf d1e5 f7bb 7b61 d83e d487 a83d
000003d0: 9c4d 253d 188c 733e e93a 3abe 39e5 cabd
000003e0: 1b1f 8abe c08e 99bd 8f89 08bd 09d0 663d
000003f0: 04c2 6e3e 6da0 38bb 6b11 6abe 5748 94be
-0.019010307 -0.13976797 0.124904536 -0.23204695 -0.03413477 -0.30756804 -0.1035621 0.08622745
0.12084178 -0.05821628 -0.093904726 0.14794372 0.20247962 -0.02144842 -0.08724907 -0.31959224
-0.17546278 0.14007129 -0.32657734 -0.35312676 0.22626798 0.23855439 0.304227 -0.2576726
-0.23858917 -0.07449941 0.19269873 0.12887594 -0.2413045 0.08977714 0.09051753 -0.11480475
3.5256526e-06 -0.5741579 -0.0964098 0.2736149 0.21071698 0.030327646 -0.3416672 0.10500266
0.010585038 -0.07106526 -0.18892623 0.08179066 0.28561872 0.06298448 -0.19170636 -0.02541768
0.011298507 0.20801236 -0.0085634645 -0.048472017 -0.22662276 -0.31952277 -0.046681955 -0.104813114
0.0036054023 0.06751422 0.06844263 0.15200904 -0.12411692 0.13894318 0.17337553 -0.026756298
0.2925731 0.038657717 -0.21332341 -0.2606606 -0.011959105 0.0014160918 -0.07937592 0.08753057
0.12554707 -0.170889 0.06762871 -0.046959635 -0.18224399 -0.22074768 0.041878924 -0.029715206
0.14047746 -0.076262504 -0.48869205 -0.07270133 -0.07023627 0.36036545 0.0025444857 -0.061321698
0.033280604 -0.37284708 0.03828136 -0.08564096 0.13331464 -0.24819793 0.1933379 -0.041447766
-0.22018947 0.034702543 -0.09344747 -0.15521613 -0.16368255 -0.02625796 0.10922211 -0.28357565
-0.21191396 -0.21259345 0.20482247 0.10853175 0.23062487 -0.334518 0.2961348 0.05676404
0.035200447 -0.017253818 0.12157056 0.14884989 -0.13816603 0.072549134 -0.016858397 0.20580867
0.06871249 0.046461187 0.15828985 -0.07711358 0.09691348 -0.042553164 0.012798241 -0.529595
0.013046491 -0.074340366 -0.31585371 0.28299066 0.09397587 0.010021684 -0.2782318 0.030621596
0.16462886 0.13430625 0.1562689 -0.02479573 -0.2658866 -0.13024953 -0.02538081 0.1225542
0.13607109 -0.015748292 0.045376293 0.3408649 -0.09913144 -0.008665668 -0.26699397 -0.18160227
-0.22240077 -0.107201874 -0.3184567 0.4171987 -0.2593369 0.17830855 -0.03950937 0.31638435
0.24492879 -0.06433609 -0.12060561 0.09012456 -0.23128359 0.06965089 0.016808802 -0.017406413
0.43406287 0.014649272 -0.17831382 0.29671496 -0.2984082 -0.06885779 0.049728684 0.2935577
0.20351309 0.082418196 0.05441643 0.13766289 -0.18449634 -0.09460955 -0.12042497 0.015254095
0.014093837 0.28398287 0.0089013 0.22077405 0.106056795 -0.05776933 -0.2638072 0.16520873
0.12796645 -0.011667686 -0.0346005 0.09681169 0.02332995 0.33126047 -0.19289726 0.20487066
0.22025415 0.17220181 -0.00175143 0.22801504 0.007685156 0.04266518 0.045583744 -0.31129754
-0.26471078 0.07643373 0.04687631 0.042649806 -0.030309001 -0.15464455 -0.00029702194 0.28526175
0.05375393 0.19529253 0.29595572 0.14247617 0.14087875 -0.13471672 -0.360422 0.17225039
0.23655553 0.16630788 0.23899575 0.03411984 0.1327233 0.14227526 -0.06473022 -0.0061402
-0.15223847 0.30424163 0.12012119 -0.04772252 0.30147246 -0.04722235 -0.055159368 -0.24962391
-0.5217384 -0.007565238 0.42261872 0.08229032 0.040357217 0.2378391 -0.18186535 -0.09907002
-0.26976857 -0.074979305 -0.03333431 0.05635074 0.23316199 -0.0028171793 -0.22858207 -0.2896144

transformer_blocks.0.mla.o_proj f4 [32, 32]
00000000: 4bb0 c9be 0f96 c8bd f7ac 0cbe ee1a c93e
00000010: 3c50 f7bd a140 6bbd 6c8d 9a3e 43fa 9b3e
00000020: 768f e33a 8a6d 14bb d16f aa3d 1772 ee3d
00000030: 25db 25be e074 553e 01fe 63be a3a3 e0bd
00000040: 402a 2d3d 2ad5 b8bd ef49 463e 5aa3 77be
00000050: 0aa6 c63d 1490 0abe 9baf b53d ebc1 50be
00000060: 391a f9bc 310d cb3e 5bc8 a1be e1ac 053e
00000070: 81ef 6e3e a5f6 503c cebf 643e 67b4 333e
00000080: 4e43 873e 307c 6fbc 34cd aa3d 0c17 9cbc
00000090: 0f81 99bd b897 bf3c f922 78be 965b 4d3e
000000a0: 2512 babd dfc0 02be b861 8d3d 2050 733e
000000b0: 23a0 b43c b768 8ebe a050 7ebe e90b 003e
000000c0: 0b38 0a3e c626 413e 3b6b b8be 8c30 c8bd
000000d0: f05f 0ebd de7e 923e c49f cabd eba6 703d
000000e0: 7b31 a03d 8f9c b4bd 9a33 e9bd 7c8a cf3d
000000f0: 4ce6 b1bd ba2e 2abe 5925 1d3e 8729 6fbe
00000100: b82b 07be ccd9 8c3b 70b4 98be fb65 ffbd
00000110: baf3 213d c083 7a3e 388c 8abd a08f cdbd
00000120: 64cf 823d 44d2 9abd 5bb4 54be 5e19 75be
00000130: 2f39 83bd 6028 3e3d 1893 273e ef54 a53e
00000140: d064 edbc bcde a53d f624 7b3c d851 3bbd
00000150: 126a b33e 48c5 3d3e 1b62 ccbc 020a 57bc
00000160: afe3 e9be 501f bf3e d8c9 b13d 3293 59bd
00000170: 0334 ac3d 6a12 c53d 89b6 e9bd 29e4 203d
00000180: 5607 c6bd acd7 ad3e 5771 09bc 9b20 8fbb
00000190: 6b32 513d f3c5 30bd 3818 5abc 952c 57be
000001a0: 24d1 5ebc a96f 173e 203b 1fbe 10da 1c3e
000001b0: 7bd5 f33d e1a0 9f3d 18ab 3b3e bdcf 603c
000001c0: 5d57 d3bd 3c6d 013d 5a32 103e b44f e8bc
000001d0: 47d5 dbbe 1077 973d 81fd 933e 8063 b6bc
000001e0: 7cbb 9bbd 2526 27be 1a33 90be 4537 e13d
000001f0: f9e9 05be d438 9dbd 4dce aebe aa31 c13d
00000200: ebac 5bbe 31a6 9abe baf7 433d 9a4e 74bd
00000210: 1052 69be 5bb7 843e cf27 aa3d 9c8e 6c3e
00000220: 14f6 883d 3701 80bd 94c5 1fbe 5950 00bd
00000230: 4ac9 1dbe b12f 9ebd 58cc b7bd 7c13 db3d
00000240: 3697 cd3e 7c58 43bd 115e 8abe 119b 4e3c
00000250: cab8 523e e65e f8bc b579 083e 54eb 3a3e
00000260: 2fc5 093e 71a1 1dbd c92a ae3e 2f92 8b3d
00000270: e1be 773d 655f 383e b0f2 753e d046 223e
00000280: ba06 893d 7abd 10be bde1 89be fb65 873d
00000290: 67af 013f dc2c 513e 9e00 9ebd f2f4 b33e
000002a0: 7dce 8f3e f41b 35be 269c 103e 328b 94bd
000002b0: ec72 173e 5124 ad3d f2a1 23be 4da3 6cbe
000002c0: 2e06 043e 57bb bebd 90f0 66be 6d1b 16be
000002d0: bf60 11bb 14f1 efbc 07c7 e5bd c526 10be
000002e0: dee3 2b3e 9c07 53be cff6 08bd 8684 833d
000002f0: 2f3e ff3d 3bcb 89be 1680 2bbe fd6e 0bbd
00000300: bad8 08be c9b8 e3bd ed22 b5bd 3e88 603e
00000310: 55a5 c6bd 055b c5bd d52a 4ebe 69a8 0bbe
00000320: 6014 083e 65c0 05be 2380 ae3d 94f6 6b3e
00000330: 5ea9 393e 225b a0bd 13d6 583c fbc4 60be
00000340: 05ef 073e 9af2 90be da80 c33e cd49 fb3d
00000350: 9c01 90be 4edb 0bbd f776 083d 0f2e 9a3d
00000360: 19e1 de3d b230 cfbd 8907 fcbd 74b5 7b3c
00000370: 8995 5e3e e93e b4bd d58a 0e3e ff41 79be
00000380: 06e9 5a3e e723 55be 56c9 8a3d e830 90be
00000390: 8bb5 203e f91c a5bd fdd0 0a3e 84ab d93d
000003a0: 5f45 bfbd bf66 50bb 8801 0fbd 615d 103e
000003b0: fdf0 813d 2d79 503d 014e dcbd 03a4 aabd
000003c0: 9cfb 21be f6f6 3d3e d9d8 52be ee73 2cbe
000003d0: 5fc6 7bbd a876 93be 9881 8f3e 1ef0 12be
000003e0: 1721 93bc c61e 643e 8b56 b0bd 248a 72bd
000003f0: 0fa9 153e d7f2 4f3e f13c 33bc f6d7 8cbc
-0.39392313 -0.097942464 -0.13737856 0.39278358 -0.1207585 -0.05743468 0.3018602 0.30464372
0.001736148 -0.0022648298 0.083221085 0.11642855 -0.16196878 0.20845366 -0.22264864 -0.10968711
0.04227662 -0.09025033 0.19364141 -0.24183407 0.09699638 -0.13531524 0.08871385 -0.20386474
-0.030408012 0.39658502 -0.31598172 0.1305423 0.23333551 0.012754117 0.22338793 0.17549287
0.26418537 -0.014617011 0.08339921 -0.019053958 -0.07495319 0.023387775 -0.24232091 0.20054469
-0.09085492 -0.12768887 0.06903404 0.23761034 0.022049015 -0.27814266 -0.24835443 0.12504543
0.13497941 0.18862447 -0.3601931 -0.097748846 -0.034759462 0.28612417 -0.09893754 0.058752935
0.07821938 -0.08818924 -0.11386795 0.10133836 -0.08686504 -0.16619387 0.15346278 -0.23355685
-0.13200271 0.0042984243 -0.29825163 -0.12470623 0.039539076 0.24464321 -0.06765026 -0.1003716
0.06387213 -0.07559636 -0.20771925 -0.23935458 -0.06407391 0.046425223 0.16364706 0.32291362
-0.028978735 0.08099124 0.015328636 -0.04573235 0.35041863 0.18532288 -0.024949124 -0.013124945
-0.4568152 0.37328577 0.08681077 -0.053118892 0.08408358 0.09622653 -0.11411769 0.03928009
-0.09669368 0.33953607 -0.008388839 -0.0043679005 0.051073473 -0.04315753 -0.013311438 -0.210131
-0.013599668 0.14788689 -0.15549898 0.15317559 0.119059525 0.07794357 0.18326986 0.013721404
-0.103193976 0.031598315 0.14081708 -0.028358318 -0.42936155 0.07395756 0.28904346 -0.022264242
-0.07604119 -0.16323145 -0.28163987 0.1099687 -0.13077535 -0.07676855 -0.3414177 0.09433301
-0.21452682 -0.3020492 0.047843672 -0.059645273 -0.2278521 0.2592114 0.08308374 0.23101276
0.06687561 -0.06250232 -0.15602714 -0.031326625 -0.15408817 -0.0772394 -0.08974522 0.10697076
0.40154427 -0.047691807 -0.27024892 0.012610213 0.20578304 -0.030318689 0.13327678 0.18253833
0.13454126 -0.03848404 0.34017017 0.06814992 0.06048477 0.1800514 0.24018359 0.15847325
0.06690736 -0.1413478 -0.26930037 0.06611248 0.5065827 0.20427269 -0.077149615 0.35147816
0.28087226 -0.17686445 0.14122066 -0.07253112 0.14789933 0.084541924 -0.15979746 -0.2310917
0.12892982 -0.09313076 -0.22552705 -0.146589 -0.002218291 -0.02928976 -0.11219602 -0.1407729
0.16786143 -0.20608371 -0.0334385 0.06421761 0.124630325 -0.26912865 -0.1674808 -0.034041394
-0.13363925 -0.11119229 -0.08844552 0.21926972 -0.09699503 -0.09636501 -0.20133527 -0.13638462
0.13289022 -0.13061674 0.08520534 0.23043281 0.18131015 -0.07829882 0.013234633 -0.21950142
0.13274772 -0.2831009 0.38184243 0.12269936 -0.28126228 -0.034144692 0.03331658 0.07528316
0.10882778 -0.1011671 -0.12306125 0.015363086 0.2173673 -0.08801062 0.13920148 -0.24341582
0.21377954 -0.20814477 0.06776683 -0.28162313 0.15694253 -0.08062167 0.13556285 0.10628417
-0.09339403 -0.0031799523 -0.03491357 0.14098121 0.06344793 0.050896812 -0.107570656 -0.08332064
-0.15818638 0.1855124 -0.20590533 -0.16841099 -0.06146848 -0.28801465 0.2802856 -0.1434941
-0.017960114 0.22277364 -0.08610257 -0.059213772 0.14615272 0.2030748 -0.0109398225 -0.017192822

transformer_blocks.0.norm1.g f4 [32]
00000000: 8113 7a3f a8df 833f 23df 833f 12d1 6a3f
00000010: bff3 723f 2ba6 833f 7179 803f 2e46 7b3f
00000020: 99e7 743f 5cfa 863f 9543 6b3f 2c6d 803f
00000030: e7af 763f 5320 723f 2722 6a3f cf85 803f
00000040: 1a98 803f 182a 683f bf6b 803f 47e7 703f
00000050: a470 6b3f e507 793f 7b8e 6d3f dd95 853f
00000060: 4a2d 873f 6077 883f 6749 6f3f c88a 7c3f
00000070: 6a62 853f 1ba6 813f c5e1 853f 1f51 793f
0.9768601 1.030263 1.0302471 0.91725266 0.9490318 1.0285085 1.0037061 0.9815396
0.9566589 1.0545154 0.91899997 1.0033317 0.96362156 0.9458057 0.9145836 1.0040835
1.0046418 0.9068923 1.0032881 0.941029 0.9196875 0.9727767 0.9279553 1.043636
1.0560696 1.066143 0.9347138 0.98649263 1.0420659 1.0128816 1.0459524 0.97389406

transformer_blocks.0.norm2.g f4 [32]
00000000: 3d47 863f a2b7 873f 4b94 813f 32a1 733f
00000010: b9cb 833f febc 723f c9af 8b3f 2010 823f
00000020: 1334 7c3f 5165 4e3f 1318 773f ce99 833f
00000030: d336 903f a8c0 933f 01c1 6b3f 5605 7a3f
00000040: 2464 7f3f aecf 7a3f 02f3 823f 4e01 803f
00000050: d210 7a3f 808b 7f3f a57c 7a3f b35b 853f
00000060: d623 893f 3ece 6e3f 8420 6a3f b49b 883f
00000070: 763e 873f 946c 6b3f 7fa2 7c3f 6e8f 803f
1.049049 1.0602915 1.012338 0.9516784 1.0296546 0.9481963 1.091302 1.0161171
0.9851696 0.80623347 0.9652111 1.0281312 1.1266731 1.1543169 0.92091376 0.9766439
0.9976218 0.97973144 1.023041 1.0000398 0.97681916 0.99822235 0.9784644 1.0418609
1.0714061 0.9328345 0.91455865 1.0672517 1.0565937 0.9196255 0.9868545 1.0043771
