assignment1-basics/cs336_basics/checkpoints/checkpoint_epoch1.pt (torch, 614054 bytes, 63 tensors)

transformer_blocks.0.ffn.w1 f4 [128, 32]
00000000: 4a38 07be a709 c73d 70f3 333e fdbf 56be
00000010: e8dc 19bd c9cd 4e3d ba0d 903e c330 25be
00000020: dca5 dc3d d24e 9abc c9b7 e33b df66 09be
00000030: 9ede 883b 3c2f 873d 8aa3 14bd 9994 59be
00000040: 12e3 46be c060 17bd 0a26 c3bd 85ec a1bc
00000050: 3a89 d4bc e02c 02be ffb0 bfbd 900c 153e
00000060: 561f 903d 5c56 0dbe a5d0 81bd 4ef9 03be
00000070: 9939 d63b c808 5a3e d8b5 2fbc 14ed 8c3d
00000080: 9550 063e e72b 57be eaeb 61be 98eb 683e
00000090: 8b4c 0b3e 908d 3d3e 5369 8e3d d6d1 81bd
000000a0: e5f5 14be 889e c63d 71c5 1ebe fd24 89bd
000000b0: 3562 873e 01d3 10be 8337 b03d 922c 863d
000000c0: 84b4 9bba b3d9 dc3c 5f4b 0dbe ad6a e53a
000000d0: b089 97be 04f2 bebd 9201 003d faf1 923d
000000e0: 6b96 2f3d 6462 cbbd 2f33 fd3d 81eb d03d
000000f0: 6e29 c0bc f7c2 233e c103 f4bd c29a 22bc
00000100: dc46 5ebe fd32 863d bbf4 453d 220a 003e
00000110: 7fd8 25be 4c84 c0bd 1032 823c 94f0 503c
00000120: 505e 4f3e 2449 52be 751d 733d 5663 51be
00000130: dbfe 973e 7868 4cbd 5c9e 8fbe 6b89 7c3c
00000140: 2e00 353d b2c6 903c 9594 aabe b80f 213c
00000150: d69c 8a3e d48b ebbd d1b7 bcbd 7d3c 53bd
00000160: 04a6 4d3b ad1b 963d 178d 1ebe aeda 93bc
00000170: c923 263e bd12 973e 5a82 eebc d545 7c3e
00000180: def6 55be 3209 433d 06e4 d0be 4845 9b3c
00000190: ec51 4fbd 6602 7dbd 716e d4bd b993 23bd
000001a0: d8be 47be eaa7 d93c 14c2 773d 39fd 36be
000001b0: c342 08be 732b f0bd 26a1 2b3e 093c d3bc
000001c0: f98c b4bd 1242 03be 5a5b 85be 323c 173d
000001d0: 5127 b0bc 3f66 823d 231a 063e b159 43bd
000001e0: 707d 13bd 54e0 673e 7c6e 873d b52e 043d
000001f0: bf9b 99bd 1fa3 e8bb 5a9e 6f3d ea28 ed3c
00000200: 5f0e 0e3e 185e d03d 7b56 7dbc 821f 2d3e
00000210: 6f8a 49bd 4d75 21be 256d 1e3d 2a8d 223e
00000220: 28b4 8bbe 6c56 1dbe 3422 5439 d9d5 0bbe
00000230: e83f 0ebd c93e 8a3d dfd7 b13c 2753 233e
00000240: 9f27 0c3e c764 23be c4d4 da3d 97b3 bd3d
00000250: 08d0 3ebd 1123 9ebd a376 6a3d d458 e13c
00000260: 6871 b13d 7a64 f83b 49ae 4d3e 7615 e03c
00000270: ad9c b0bb 2185 2c3d 566e 0dbe 43f7 c2be
00000280: e970 9d3c b986 123e e74d 9abd d1f3 3dbe
00000290: b5c1 373d 5d4d d9bd f76f 093e e398 a83d
000002a0: 8ea3 aabe fc39 a63d 1e4f 6f3e b471 853e
000002b0: 9763 b6bd 69b2 983d 927c 313e 0915 b93d
000002c0: 0133 58be a621 b8bd 0942 1f3d a018 99bd
000002d0: 7894 5abc 727c 07be 6612 bcbd 2c66 a6bb
000002e0: 3528 1b3d 5a9a 153e 4c0d 4cbd 854f f2bd
000002f0: 9354 dbbe 1948 bdbb 3873 19be be47 e6bd
00000300: e94c c5bc 8829 babd f3fa 57be c45e 6dbd
00000310: 0567 5ebe 1acb 59bd c3b4 88bd b09e 40bc
00000320: b8b6 a23e b334 5abd 1c8f 213d 1f59 823b
00000330: 95c3 e7bd 0899 a5be 6bb0 103e cc4f 923e
00000340: 042d 9e39 f8de 99be 15d9 b63e 98b7 2d3e
00000350: d3a9 b3bd 72d4 523c be83 fc3d 27ad cfbc
00000360: 69d3 afbc bffd 5a3e e375 593e 420c ba3e
00000370: fffb cc3d 4605 dc3d 3b7e 313e 99d4 67be
00000380: 0843 ecbd b1ff bb3d 0754 4fbe 0d75 163e
00000390: 0f4b c8bb 9707 e3ba a3fd c53d e78d 3a3e
000003a0: 5489 063d 1753 cdbd 7f53 723d d219 eb3d
000003b0: 05c2 823e e5a6 8f3d 1443 683d f7de 3abe
000003c0: d9ce 15be 1691 063e 27b5 f33d e951 9ebd
000003d0: 4342 33be 524e 14be ca79 e7bd 0318 933d
000003e0: 9135 54be e2fc d43b 37f5 963d b362 03be
000003f0: 3d84 cb3d ee7d aaba 2634 353c 2d5a 59be
-0.13205066 0.09718638 0.17573333 -0.20971675 -0.03756419 0.05048922 0.28135473 -0.16131882
0.10773823 -0.018836413 0.006949399 -0.13418148 0.0041769287 0.06600806 -0.036288776 -0.21248092
-0.19422558 -0.036957502 -0.0952874 -0.019766102 -0.025944341 -0.12712431 -0.09359931 0.14555573
0.07037227 -0.13802475 -0.06338624 -0.12888071 0.006537628 0.21292412 -0.010724507 0.068811566
0.13116677 -0.21012841 -0.2206265 0.22746122 0.13603418 0.18511033 0.06953683 -0.06338851
-0.14546926 0.09698206 -0.15505005 -0.06696508 0.26442114 -0.14142992 0.08604338 0.0655147
-0.0011879359 0.026959276 -0.13798283 0.0017503105 -0.29597235 -0.093235046 0.031251498 0.071750596
0.04286806 -0.09930876 0.12363278 0.10201169 -0.023457255 0.15992342 -0.119147785 -0.009924592
-0.21706718 0.06552694 0.048329096 0.12503865 -0.16195868 -0.094002336 0.015893012 0.012752671
0.20250821 -0.20535713 0.059354264 -0.2044805 0.29686627 -0.049904317 -0.28050506 0.015413622
0.044189624 0.01767287 -0.33316484 0.009830408 0.2707278 -0.115012795 -0.09214748 -0.051571358
0.003137947 0.073294975 -0.15483509 -0.01804861 0.16224588 0.29506484 -0.02911489 0.24636014
-0.20894954 0.04761619 -0.40798968 0.018953934 -0.050615236 -0.061769865 -0.103726275 -0.0399358
-0.19506395 0.026569325 0.06048782 -0.17870034 -0.13306718 -0.11727037 0.16760692 -0.025785463
-0.08815951 -0.12818173 -0.26046258 0.03692264 -0.021503123 0.06367158 0.13095908 -0.04769296
-0.0360083 0.22644168 0.0661287 0.032271106 -0.07500409 -0.0070995237 0.058500625 0.028950173
0.1387267 0.10174197 -0.015462513 0.1690655 -0.049204286 -0.15767403 0.038678307 0.15874162
-0.27285886 -0.15364999 0.00020230637 -0.13655795 -0.034728914 0.067502566 0.02170938 0.15949689
0.13686989 -0.15956412 0.10685113 0.0926277 -0.046585113 -0.07721532 0.057242047 0.027508177
0.08664209 0.007580337 0.20086016 0.027353983 -0.005389771 0.04211915 -0.13811621 -0.3807927
0.019218879 0.14309205 -0.0753439 -0.1855004 0.044862468 -0.10610459 0.13421617 0.08232286
-0.33327907 0.081165284 0.23370025 0.2606331 -0.08905714 0.07455904 0.17332676 0.09037215
-0.21113206 -0.08990793 0.038881335 -0.074754 -0.013341062 -0.13231066 -0.09183197 -0.005078098
0.03788014 0.14609662 -0.04981737 -0.118315734 -0.42837963 -0.005776417 -0.14985359 -0.112441525
-0.024084525 -0.09089953 -0.21091823 -0.057951704 -0.21718986 -0.05317221 -0.066751026 -0.011756584
0.31780028 -0.053272914 0.03944312 0.003977909 -0.11316601 -0.32343316 0.14129798 0.28576505
0.00030169648 -0.30052924 0.35712495 0.16964567 -0.08772626 0.012868034 0.12329815 -0.02535112
-0.021463113 0.21385859 0.21236376 0.36337477 0.10009002 0.10743193 0.1733331 -0.22639693
-0.11536223 0.09179629 -0.20246898 0.14693089 -0.0061124633 -0.0017320988 0.09667518 0.18218194
0.03284581 -0.10025614 0.05916166 0.11479534 0.2553865 0.070142545 0.056704596 -0.18249117
-0.14629687 0.13141283 0.118997864 -0.07730467 -0.17505746 -0.14483002 -0.11302526 0.07182314
-0.20723559 0.0064998725 0.0737099 -0.1283062 0.09937332 -0.0013007501 0.011059796 -0.21225806

transformer_blocks.0.ffn.w3 f4 [128, 32]
00000000: fe83 5bbe e33b 53be 2374 503d df8c 113e
00000010: 556c c2bd a2f9 68bd d26a c0bd e5d8 053e
00000020: a723 4b3c d256 febc 8280 29be 02c3 f23d
00000030: 2830 a2be 1750 a23d f006 dd3c 636a d83c
00000040: fe1e 0b3d fdf9 253e 777e aabc 342c 073e
00000050: 2ce7 c9be 822d c3bd 78a5 983d 10e0 3ebe
00000060: f3a1 1cbe 9d07 11bd f027 f53d b4a8 4dbe
00000070: 79d0 4abd c90f 48be e4b7 3d3e 883b 0e3e
00000080: 7078 393d c440 92be d97e aebd 6da8 79bc
00000090: 387e 4d3b 7656 89bd 5ea3 653d 4294 bc3b
000000a0: 5c1b f7b9 c331 43bd f0ff e7bb 1e86 ebbd
000000b0: 69a8 823c 105b 283e c510 1f3e 4724 473c
000000c0: 5e43 eabc 5141 ec3d fd5a 52bd b3c0 a7bd
000000d0: f495 2ebe eac3 86be 1498 2ebc 129b 0cbd
000000e0: 96f1 26bd 031e 6b3c 30de b23d 7082 06be
000000f0: a488 56bd ec5a e63c bb69 c4bd 333b ffbb
00000100: f278 763d a677 b63d 4eb5 43bd 304a 55bd
00000110: 42bb f7bd be2c 05be 48de ea3b 0f86 68be
00000120: 4aaf ebbd 5216 eb3d 961d 29be 68c9 c73d
00000130: 4bcf a3be e622 bfbd ccce fb3d 3a4d 553c
00000140: 5c3d 0f3e b760 0fbe 20be 05be 6d71 9dbe
00000150: 400f f0bd b0a4 023c 6e10 4bbc 8169 1c3e
00000160: 6f0e dbbc f67a 90bd fa36 c33c 3d79 11bd
00000170: 5b47 edbd 6685 003d 9b17 893d e093 acbe
00000180: 951d 35bd 5716 40be c3d7 bf3c a5ac 063c
00000190: fd50 b13d cef7 2bbe bd6c 323e 5cd1 2dbc
000001a0: a791 3a3b d5c1 95bd 28a6 71bd 9512 41bd
000001b0: c089 a1bc 6a70 96bc 30f6 0d3e c10d 3abe
000001c0: 058b c4bd 9223 963c e6b5 bebd 69b3 173d
000001d0: 835b f3bd 21e1 ee3d 7538 ccbd c7f8 94bd
000001e0: 76d4 173e 4bde 2cbe 8264 0b3d 17c4 1b3e
000001f0: f915 c7bc 0034 a1bc ee69 c83d b87a 5fbb
00000200: bac0 3cbc 0dc9 55bd f64b 0e3d ee3a 563b
00000210: 992e 1cbe d83d 7dbc 499a b83d 81b0 a93c
00000220: 43bf 903d e752 c9bd 5119 b53d 4741 23be
00000230: 9279 4e3d bb99 b5bc a476 0ebe be93 893d
00000240: c69e 073e 245c 95bc f581 f3bd 9abb d1bc
00000250: b9a6 21bd 88a9 c53d 3e37 40be ac33 073e
00000260: b503 623e 673b 08bd b4ba dfba b16a 1bbd
00000270: 4270 bd3d fa48 4ebe 91aa 1a3e 1ed2 053e
00000280: e232 d13c 892c 6fbe 0697 5ebe a5f5 203e
00000290: ae25 043e a3b0 913d 3082 76bd 8923 773c
000002a0: d0f8 60bd 2d5f d13c bbdc 5b3d fc56 6d3c
000002b0: 36fe e2bc b063 cf3d e502 d5bc 508a 383e
000002c0: 1de2 c53d a0cd ab3e 836a 4a3e a668 87be
000002d0: b08b 8dbe 1935 13be 8088 813d 0806 b7bc
000002e0: 7e79 7c3d c0da 643e d727 84bc dd52 8a3d
000002f0: 994c 003e a1f6 20be 5ee1 c5bd 8957 92bd
00000300: 66e2 6fbe 192e da3d 0f49 01be 5ed5 f3bd
00000310: ef35 573d 6ce6 13bd c2d0 573e d634 90be
00000320: b82c d63d 686c 14be f540 c03e 1800 253e
00000330: 9441 d5bc ed32 4dbe c23e 723e 4760 603d
00000340: 38bb 233e 46e2 14be f285 2ebc 5455 7bbc
00000350: d0f9 cebd 175d 65be dc03 58bc b3fe f2bd
00000360: 8ef5 903d 3d86 fabd 751b fc3c f293 373e
00000370: f098 0d3e b9f6 033d 15d8 203e b06a c93b
00000380: ca9e 45be 291e 8abc 787f 7e3d 1590 c13d
00000390: a793 c2bd c5ec 10be f0d7 1cbe 1c9e f33d
000003a0: 3801 08be e020 4ebc 118f 28be b339 0d3e
000003b0: 4877 183e d3dd 0b3e 960f 14bd f431 523e
000003c0: d1ae a0be f7e1 12be 537e b5bd adf6 a73d
000003d0: e8df e6bd 4233 06be a4d1 1bbe 0834 9bbe
000003e0: 6330 0a3e 0ca2 a83d 09b6 873e cce6 e6bc
000003f0: 0b33 da3d cb04 15be 847c e93d 618f cfbd
-0.2143707 -0.20628314 0.050892007 0.14213894 -0.09493319 -0.056878693 -0.09395374 0.1307102
0.012398637 -0.031047259 -0.16552928 0.11853601 -0.31677365 0.07925432 0.026980847 0.026417917
0.033965103 0.16208644 -0.020812256 0.13200456 -0.39434183 -0.09530164 0.07453436 -0.1864016
-0.15296154 -0.03540765 0.11970508 -0.20083886 -0.04951522 -0.19537272 0.1852718 0.13889897
0.045280874 -0.28565037 -0.08520288 -0.01523791 0.003135575 -0.06705944 0.056064002 0.0057549784
-0.00047131896 -0.04765488 -0.0070800707 -0.1150019 0.015949445 0.16440988 0.15533741 0.012154645
-0.028596576 0.115358956 -0.051356304 -0.08191051 -0.1704939 -0.26321346 -0.010656375 -0.034327574
-0.040757738 0.014350417 0.08733785 -0.13135695 -0.052376404 0.028119527 -0.09590479 -0.0077890395
0.060173936 0.0890954 -0.047780327 -0.052072704 -0.120962635 -0.13005349 0.0071676113 -0.2270739
-0.11508043 0.11478867 -0.16515192 0.09755212 -0.3199409 -0.09332828 0.12295303 0.0130189005
0.1398825 -0.14001738 -0.13060808 -0.307506 -0.11721659 0.007973835 -0.012394054 0.15274622
-0.02674028 -0.07054703 0.023829926 -0.035516012 -0.115858756 0.03137722 0.066939555 -0.3370657
-0.044217665 -0.18758522 0.023418313 0.008219873 0.086580254 -0.16793749 0.17424293 -0.010608997
0.0028468163 -0.07312361 -0.05899635 -0.04713686 -0.019719005 -0.01836415 0.13863444 -0.18169309
-0.09596828 0.018327508 -0.09312038 0.037036333 -0.11882689 0.11664034 -0.09971706 -0.07274013
0.14827141 -0.16881673 0.0340314 0.15211521 -0.02430247 -0.019678116 0.097858295 -0.0034100246
-0.011520559 -0.05219369 0.03474041 0.0032688933 -0.1525215 -0.015456639 0.090138026 0.020714046
0.0706773 -0.098302655 0.08842719 -0.1594287 0.050408907 -0.022168031 -0.13912445 0.06717633
0.13244161 -0.018232413 -0.11890022 -0.02560215 -0.03946564 0.09651476 -0.18771073 0.13203305
0.22071727 -0.033259775 -0.0017069192 -0.037943546 0.09249927 -0.20145026 0.15104128 0.13068435
0.025536958 -0.23356833 -0.21737298 0.15718706 0.12904999 0.07113769 -0.06018275 0.015084156
-0.054924786 0.025558079 0.0536773 0.014486071 -0.027709108 0.10126436 -0.026002357 0.18021512
0.09662268 0.33555317 0.19767193 -0.26447028 -0.27645636 -0.14375724 0.063248634 -0.022341743
0.0616393 0.22349072 -0.016132278 0.06754086 0.1252922 -0.15719081 -0.09662126 -0.07145602
-0.23426208 0.10653324 -0.12625526 -0.11905931 0.05254167 -0.03610842 0.21075729 -0.2816531
0.10457748 -0.14494479 0.37549558 0.16113317 -0.026032247 -0.20038958 0.23656753 0.054779317
0.15989387 -0.14539441 -0.010652052 -0.015340168 -0.10106242 -0.22398792 -0.013184514 -0.11864986
0.07078086 -0.12232635 0.030774811 0.1792753 0.13827872 0.032217715 0.15707429 0.0061467513
-0.19298854 -0.016860085 0.062133282 0.094513096 -0.09500819 -0.1415282 -0.15316749 0.11895391
-0.13281715 -0.01258108 -0.16460826 0.13791542 0.14889252 0.13658838 -0.036147676 0.20526868
-0.31383374 -0.14344011 -0.08861985 0.082013465 -0.112731755 -0.13105491 -0.1521669 -0.30313134
0.1349502 0.08234033 0.2650607 -0.028186224 0.10654267 -0.1455261 0.114007026 -0.10134769

transformer_blocks.0.ffn.w2 f4 [32, 128]
00000000: fc16 a03b 8ad7 b83b e78d 7d3e 2a35 b53d
00000010: 1a9e 403e 5f75 8fbe 4b0b bbbd fc50 1abd
00000020: 667b bdbd d2b3 07bc 10ad 8d3d f6e7 a5bd
00000030: 9d23 46bd 18a4 f2bd e8ed 8b3c 4827 023e
00000040: ec3e 883d 2127 ab3d dac4 90bd 32f4 9c3e
00000050: 01cb ff3d ce80 51bd bf28 9fbc 9b9c 483d
00000060: 0923 ef3c fcf4 47be 9987 25bd 1e40 543d
00000070: 6b04 94bd f619 c4bd f5e2 9cbd 7ab3 e8bd
00000080: eea0 ef3c 3415 c33d 9627 d0bd e52d 283d
00000090: 5258 d13d cf67 46bd e909 7d3d 512f 40bd
000000a0: c606 81be a03e 0abd 26c1 143e bb97 88bd
000000b0: 066d 18bb 2bbd 653e 7c9d 1dbd f0eb 1bbe
000000c0: 8cff f83a bbbd c23d 082e 993c ef8c a5bb
000000d0: 4225 b5bd 941e 563d a250 f7bd 5659 10be
000000e0: 004a b83d 4379 183d f7e5 1bbe ada0 8bbb
000000f0: fbec 093c 4d7b f9bd 2f6d e03d c579 80bd
00000100: e850 cd3d fee1 36be 64e9 78bc 1b64 f4bd
00000110: 8741 3cbd 3c53 423e 9c35 76bd 10e5 5cbd
00000120: 4f7d 97bd 7e9d 2e3e 618a 11be a270 7fbc
00000130: 22fb 1dbe 36ef a3bb c4fb 86be abc0 aaba
00000140: 9697 69bb 7351 6dbe dc36 bbbd 6e8b 2fbe
00000150: 8c0b e9bd 2bd4 e23c 3932 fcbd 0ff3 c0bd
00000160: 3293 3abd 7d27 933d 543f 143d 6988 7abe
00000170: 1a88 18bd b5e5 533b db53 ad3e a24e 4a3d
00000180: 3cb5 bebc 08a3 cc3c caf9 473d 889d dd39
00000190: 10a2 b9bd d159 2a3e 1b2d 283e 2992 cd3c
000001a0: 1ea5 adbb f19e 3fbd 195a 6abc db49 9cbd
000001b0: e92e b7be aa43 223e 31a3 d03d 40a6 153d
000001c0: 32ee 4cbe c3f3 ab3c ea44 1b3e ca3a a5bd
000001d0: f2bb ddbd 2d99 84be 9473 463d f81c af3c
000001e0: 3c19 17be d2f5 b93c be99 e2bd 1463 72bd
000001f0: 7abd 7bbe 78a7 0a3d fe36 3ebe b8cf 85bd
00000200: f476 023d cccf d23d b4bf 703d 2583 17bd
00000210: 0e8d 8b3d efd2 e4bc 3ec9 db3d 7737 82be
00000220: f2fd 283e 53bc 913d a1cf 14bd 9553 edbd
00000230: 86b8 3dbe a37a edbd a1b3 bfbd 51fa 933e
00000240: 8cb0 7d3d 9110 a8bd 15d6 d23d 8adc 7c3c
00000250: 4db4 db3d d4d4 6cbe a1fa 53be 93fd 003e
00000260: b002 9abc b11d 80be 8ff3 5ebd 58f9 9cbe
00000270: a2bc 183e 6056 c83b 8c96 57be 0c97 493e
00000280: 4318 13be 4bda ba3d 7586 bc3d 4be9 3dbd
00000290: 2951 bc3d ec88 e23c 6ca2 123e 1b0f 92bd
000002a0: 20ae 483e e028 2ebd 2e6c 543d 8e7c 31be
000002b0: b449 253e 35fa 403e 05c0 2cbd 579c 8abe
000002c0: a6e8 043e d7e5 e53d d300 f63d db37 0bbe
000002d0: d5b0 ad3e f42b 683e e4ae ee3d 845e cd3d
000002e0: f9f5 80be 666a ba3d 6b83 cbbd 9104 d3bd
000002f0: 5997 063d 51f6 7bbe d05b 053e e222 bb3d
00000300: 7dff 8abe 8911 e33c b4b0 bcbd 2678 493d
00000310: 392c 97bd c803 873c ec26 fb3d 8c2d 11bd
00000320: 7ab2 873e 72b5 2d3e 519e 673e 52e4 cabc
00000330: 9cd3 4f3c 05da e6bb 5666 6d3e b275 96bc
00000340: 6e36 333a aa50 88bd 8e94 053e 4906 48bd
00000350: ca14 19be afac 523c 46f9 0cbe e112 ea3d
00000360: 8175 bfbe a288 d23d cbca a03e 11f0 4f3d
00000370: ddb8 f63c 9154 f4bd c824 c63d 52b7 04bc
00000380: 48e6 453d e3d0 4b3b 000a 213e 769b 8fbe
00000390: e050 a0bd 3f52 e63d e767 91bd 300e 52bd
000003a0: 3022 973d f283 353d 633a 4abd cf66 61be
000003b0: 8332 95bd 6e1c edbd 81f4 c6bd cef1 8dbe
000003c0: ae3a 393e b400 0e3e e228 293e 5e34 96be
000003d0: 40c3 27bd e9f5 2e3e 6ace 2f3e 0405 8cbd
000003e0: 0f4a 1cbe 0aea a5bd 17de 393d 69b9 b0be
000003f0: bb72 e0bd c2a6 b5bd f235 af3c b2e1 e83d
0.0048855525 0.0056409286 0.24761163 0.08848031 0.18810311 -0.28019235 -0.09133013 -0.03767489
-0.09252052 -0.008282619 0.06917775 -0.08100884 -0.048373807 -0.11847705 0.017081216 0.12710297
0.066526264 0.083570726 -0.070687965 0.30655056 0.12489892 -0.05114823 -0.019428609 0.048977476
0.02919151 -0.19527048 -0.04041252 0.05181896 -0.07227405 -0.09575264 -0.07660476 -0.113623574
0.029251542 0.095255286 -0.101638004 0.041059393 0.10221924 -0.048438843 0.06177703 -0.046920124
-0.2520048 -0.03375113 0.14526805 -0.06669565 -0.0023258342 0.22435443 -0.038480267 -0.15226722
0.0018997057 0.095088445 0.018698707 -0.005052201 -0.08844997 0.052275255 -0.12075926 -0.14096579
0.089984894 0.03722502 -0.15224443 -0.0042610974 0.008418317 -0.12181721 0.10958325 -0.06273226
0.10025197 -0.17859647 -0.015192363 -0.11933156 -0.04596093 0.18977064 -0.06010972 -0.05392939
-0.073969476 0.17052266 -0.14212944 -0.015590819 -0.15427831 -0.0050028814 -0.26363957 -0.001302739
-0.003564333 -0.23175602 -0.09141323 -0.17143032 -0.113791555 0.02768906 -0.12314267 -0.0942136
-0.045550533 0.07185266 0.036193207 -0.24466099 -0.03723917 0.003233296 0.3385304 0.049391396
-0.023279779 0.024980083 0.0488222 0.00042269775 -0.09064114 0.16635825 0.16423456 0.025094109
-0.0052992245 -0.046782438 -0.0143037075 -0.07631274 -0.35777977 0.15846124 0.10187376 0.0365355
-0.2001274 0.020990258 0.15163007 -0.08067854 -0.10826863 -0.25898114 0.048450068 0.021376118
-0.1475572 0.022700224 -0.1106448 -0.05917652 -0.24583998 0.033851117 -0.18575665 -0.0653376
0.031851724 0.1029354 0.058776572 -0.036990304 0.068140134 -0.027932612 0.10731743 -0.2543294
0.16503122 0.07115998 -0.036330823 -0.11588208 -0.18527421 -0.11595657 -0.09360433 0.28901914
0.061935946 -0.08206285 0.10294739 0.01543344 0.10727749 -0.23128062 -0.20701076 0.12596731
-0.01880011 -0.25022653 -0.054431494 -0.30658984 0.14915708 0.0061138123 -0.21053523 0.19686526
-0.14364724 0.09123667 0.09205333 -0.046365064 0.091951676 0.02765318 0.14319772 -0.071317874
0.19597673 -0.04251945 0.05186098 -0.1733267 0.16141397 0.18845446 -0.04217531 -0.27072403
0.12979373 0.11225479 0.12011876 -0.13595526 0.33923975 0.22673017 0.116544515 0.10027793
-0.25187662 0.09102325 -0.09937175 -0.10303605 0.03285918 -0.24605681 0.13023305 0.09137513
-0.27148047 0.027718322 -0.09213391 0.049186848 -0.07381482 0.016481295 0.12263283 -0.035443828
0.26503354 0.16963747 0.22618987 -0.024767075 0.012684729 -0.007045033 0.2318357 -0.018366668
0.0006836419 -0.066560104 0.1304495 -0.04883412 -0.14949337 0.012858554 -0.13766965 0.11429382
-0.37394336 0.10279967 0.3140472 0.050766055 0.030117447 -0.11930192 0.09674984 -0.008100348
0.048315316 0.0031099848 0.15726471 -0.28048295 -0.07827926 0.11246156 -0.07099896 -0.05128306
0.073795676 0.044315286 -0.04937209 -0.22011875 -0.07285025 -0.11577688 -0.09714604 -0.27723545
0.18088791 0.13867456 0.16519502 -0.29336828 -0.04095769 0.17085995 0.17168584 -0.06836894
-0.15262626 -0.0810128 0.045377817 -0.34516457 -0.10959383 -0.08869697 0.021388028 0.11371173

transformer_blocks.0.mla.q_proj f4 [32, 32]
00000000: 2c9d f23e 52a4 753d 2f5b abbe 9749 b73d
00000010: aa3b 75be 6fa7 c83e 85a5 8d3e db07 cdbd
00000020: 8399 e5bd ecdc 553e 5824 66bd 12a3 c33b
00000030: f65d 7a3e 18af 1bbe 560f 1c3f 1d9f c13d
00000040: 8832 3b3e 1ab5 063e 549d 223c dc76 62be
00000050: 69ec 2bbe 164a 30bf 0d89 42be 39ff a5bd
00000060: e021 91bd cfca a03e 53d7 863d b9a7 71be
00000070: 6d96 d4bd e3e3 d8bc aa2e 9dbe 3da7 8dbd
00000080: fb35 da3e 1663 243e 0f81 b23e 7ff1 bfbd
00000090: 2cc5 0e3d dc2c 98be 044e 01be cf76 9fbd
000000a0: ef84 5f3d 10e5 67be fd8b 123d 1566 a73e
000000b0: 914c ba3d 0e44 cebd 38a1 023d 710a b23d
000000c0: e30b a8bd 3f0f b4bc ea8d 8c3d bb4f 8f3d
000000d0: 3d82 83bd fc71 b1be cb75 3b3e e178 a63e
000000e0: 3686 dc3d ccf0 903c 4a34 923c ffb9 4c3e
000000f0: b51f 4dbe 69cc db3e a06d b43d f0a8 9dbe
00000100: 5dc6 7e3d a408 c1bd 30f8 e03d 1d43 a3be
00000110: 5a4a 1dbe 2c97 d13b dc9f b53e a0bd 873e
00000120: 6d8a 273e 7e92 903e 52b2 c4bd 811c b73c
00000130: c3af 39be b574 96be 2194 673e ec78 89be
00000140: c87b 433e af56 2bbe a256 b23d b71c 9cbe
00000150: cf56 aabe 7a12 893d e8a8 15bc b251 13be
00000160: 80c3 023e 36c6 f2bd a570 2abd bc4a 83be
00000170: 1862 68be d077 c5bc 0249 e53b 8f1e 89be
00000180: d0ad 44bd 17c8 8abd 60dd 6a3e 24c8 3a3e
00000190: 101d 9fbd 885c 25be 3a9a c8be 4268 b0be
000001a0: 3f21 c83c edc8 13be f192 87bc 78a6 823c
000001b0: 95ee e03c f833 edbd 1d4d 853e db57 4dbe
000001c0: d391 1f3e 5267 d53d e418 3a3e 7a6b 55bd
000001d0: d4d2 d33d 18cf 913e f5d6 2b3e f8b5 773e
000001e0: a06f aebe f24f 3fbe ca5d f8be 1441 dbbd
000001f0: bd69 01be 3610 bcbd 0bbd 273e 5a49 a3bc
00000200: 01bd c83c c04b 733e ba32 23be 9763 253e
00000210: a9e9 42bc 2169 62be 9894 aa3e 4f19 8f3e
00000220: 0a0f d13d 0943 3b3e 75e7 953e 1a2a 1f3e
00000230: 5a26 a13b 6624 85bd 5875 513e 8404 2d3d
00000240: 35ae 503d 8db0 23bf 6a72 4f3e e4f8 45be
00000250: d76d 073e edaf cc3e 5e18 7bbc 9063 023d
00000260: d7b0 ce3d c87a 423e 49a4 de3d 7427 c4be
00000270: 7846 98be 6c37 9d3e 5cfb 5abe 5039 52be
00000280: e40b bb3d 4738 aebe bf2f 2d3e b092 9cbe
00000290: a19c 803d 1f26 f53d e93e 7f3c 5903 c23e
000002a0: 8af9 013e ad69 fbbd ff70 473e 12e5 123d
000002b0: b892 953d b38d 923e 3b5e 203d 61af 20be
000002c0: c6cd 543c d9ce b0bd 2c9a 9b3c 4e09 27bd
000002d0: cf5f e03d 0552 bbbe 9a35 883e a11b fbbc
000002e0: ed1c 7ebe d1b7 e5bd 132a bbbc e1fd ba3d
000002f0: 6520 11bd 2776 bdbe b04a 54be 5388 633d
00000300: 33a6 07be 7a3e dcbd 3f7b 873e 14f8 06be
00000310: e573 b63c 6651 aa3e d2ae d83d f662 22ba
00000320: f225 333e acca 653d 212a 29be deda b63d
00000330: 1b41 0f3e 609d b63e 75c6 06be 9862 aa3e
00000340: 630f b33d a4d1 833d 0f59 d43d 1810 143e
00000350: b8f1 973e 7ef2 8e3d 899a 56bc 911e 803e
00000360: 0730 99be 2b24 123d 84ad ba3d 8cfc 1e3e
00000370: 464a 4a3e 28bf 443e d25b 77bd 0c7f f5bd
00000380: a228 243e ae6f b3bd f70a 623e 694a 4c3e
00000390: 1f8c 90bc 7cd4 f1bd 7f31 693e ec70 e3bc
000003a0: 6387 73bd 2db0 87be 6ca1 c8bd 8014 f1be
000003b0: 73be febc d132 013e 3823 1bbd 151f 053e
000003c0: 8a28 8d3e d7c6 aa3d 73b8 cfbe 24d1 383e
000003d0: b888 213e 85ad 29bd fb02 d33d caf8 a3bd
000003e0: e5df 203e 0a5b 70be 08e2 94be bff1 adbd
000003f0: cdf9 6b3e a0bd 463d 5147 653e 1a65 893e
0.47385538 0.05997116 -0.33468005 0.08949583 -0.23948541 0.39190242 0.27665344 -0.10011264
-0.11210921 0.20885056 -0.056187004 0.005970367 0.24449906 -0.15203512 0.609609 0.094541766
0.18280995 0.13155022 0.009925205 -0.22115654 -0.16789402 -0.68863046 -0.18997593 -0.081053205
-0.07086539 0.3140473 0.065840386 -0.23599137 -0.10380254 -0.026475852 -0.30699664 -0.06916664
0.4261931 0.16053423 0.3486409 -0.093722336 0.034856007 -0.29721725 -0.12627417 -0.07786333
0.054570135 -0.22645974 0.035778034 0.3269507 0.09096635 -0.10071574 0.03189203 0.08693398
-0.08205392 -0.021979926 0.068630055 0.06997629 -0.06421325 -0.34657276 0.18306653 0.32514098
0.10767786 0.017692946 0.017847199 0.19992827 -0.20031627 0.4292939 0.08809972 -0.30792952
0.062200893 -0.09425476 0.10984838 -0.3188714 -0.15360394 0.006396195 0.35473526 0.2651186
0.16361399 0.28236765 -0.096043244 0.022352459 -0.18133454 -0.29385915 0.226151 -0.2685007
0.19090188 -0.16732286 0.0870793 -0.30490658 -0.33269355 0.06692977 -0.009134509 -0.14386633
0.1276989 -0.11854212 -0.041611332 -0.25642955 -0.2269367 -0.024104983 0.0069972286 -0.26781127
-0.048017323 -0.06776445 0.2293601 0.1824041 -0.07769215 -0.16148579 -0.39180166 -0.34454542
0.024429915 -0.14432116 -0.01654956 0.01594852 0.027457515 -0.11582178 0.26035395 -0.20053045
0.15582971 0.104200974 0.18173558 -0.05210445 0.10342947 0.28478312 0.16781218 0.2419051
-0.34069538 -0.1868284 -0.48509055 -0.10705772 -0.12637992 -0.091827795 0.16380708 -0.019932438
0.024504187 0.23759365 -0.1593732 0.16151272 -0.011896529 -0.22110416 0.33316493 0.27948996
0.102079466 0.1828729 0.2927815 0.15543404 0.004917902 -0.06501083 0.2045492 0.042240635
0.050947387 -0.6394127 0.20258489 -0.19333225 0.13225494 0.3997797 -0.015325634 0.03183323
0.10092323 0.1899215 0.10871179 -0.3831135 -0.29741263 0.30706346 -0.21384948 -0.20529675
0.09133127 -0.3402731 0.16912745 -0.30580664 0.062798746 0.11970162 0.015578964 0.3789318
0.12692848 -0.122760154 0.19476698 0.03586299 0.07303375 0.28623733 0.039152365 -0.15691902
0.012988513 -0.08633203 0.018994413 -0.040780358 0.10955774 -0.36586013 0.26603395 -0.030652823
-0.24815722 -0.11216701 -0.022847211 0.09130455 -0.035431284 -0.37004206 -0.20731616 0.05554993
-0.13246994 -0.10754104 0.26461217 -0.13180572 0.02227206 0.33265227 0.10580219 -0.0006194556
0.17494944 0.056101486 -0.16519977 0.08928464 0.1398968 0.35666943 -0.13161643 0.33278346
0.08743169 0.0643647 0.10368549 0.14459264 0.29676604 0.069798455 -0.0130983675 0.2502332
-0.29919454 0.035679024 0.09115127 0.15526026 0.19754896 0.19213545 -0.0603903 -0.11987123
0.16031125 -0.087615356 0.22074495 0.1995026 -0.01764494 -0.11808106 0.22772788 -0.027763806
-0.059455287 -0.265016 -0.09796414 -0.47085953 -0.031096673 0.12617041 -0.037875384 0.13000138
0.2756999 0.08338707 -0.4057041 0.18048531 0.1577481 -0.041425247 0.10303303 -0.08006437
0.15710409 -0.23472229 -0.29078698 -0.08493375 0.2304451 0.048520684 0.22390486 0.26834947

transformer_blocks.0.mla.k_proj f4 [32, 32]
00000000: b6bc 9dbd 19e3 363e 1577 de3d 6dad 96be
00000010: 5927 ea3e 146a b8be 609f eb3e 9fd3 5a3d
00000020: 7483 e8be f4a5 30bc b2ab 2ebe 9a6d 4fbe
00000030: 202a 05bf e3f0 a5bd ec76 a33e 6bf1 533e
00000040: 65ee 383e 8635 003d 21d2 75be f687 8e3e
00000050: 4b51 3fbe e4e7 cebd d68e 3c3e 7b91 9d3e
00000060: b46b 553e b5ee 493d 755b 91be f08e 2e3d
00000070: cb0a 80be 403b fabc 8fa8 713d 7f7d 0abf
00000080: f3f4 c3bd 8d03 5f3e 7230 10be 29df a73e
00000090: d9e2 aa3e d443 f3bd 7a40 a43e 0a1b 49be
000000a0: d12d 5bbc f3a0 0d3f 596d e33d 3bda b1bd
000000b0: 1967 40be 296e efbe 2344 ae3e bec5 d7be
000000c0: 252d 713e f58b 2cbd 7435 d8bd 2e9a 803d
000000d0: 710d 95bd b918 b93c f2ee 0dbe dadf b53d
000000e0: 2986 573e 0b30 a33e 5289 e13d b139 1c3e
000000f0: 8148 d6be d6f6 cb3d b037 12be d1f0 fdbe
00000100: f4b1 733e a997 8abe 83f2 acbd c40b 67be
00000110: 2052 813e a94d a4be f01e 6e3d be9b a83e
00000120: f8af 06bd dc76 593e 8d89 f6be 538b 0abe
00000130: 1cf2 023e a6b3 923d eefe 003e 1924 5f3e
00000140: ddc0 c73c 1e10 fcbd 1710 5dbc dc3e 613e
00000150: 340a aabe 2653 4b3e b00d 5dbd 8ba5 aebe
00000160: 4b3d 9e3e 660c 853e d8bb 5a3e 6237 fa3c
00000170: d7d3 f7bd fa46 8ebe ad31 983c 4ce4 abbe
00000180: 3a0e d23d 2e71 f9bd 0139 263d 91b6 61be
00000190: ac55 03be 0bac e23d f8a7 083b 1de6 6dbe
000001a0: 6283 0dbd d4fa fe3c ea06 82be 7496 c13e
000001b0: a2a2 3f3d b17f 1d3d 990f 883d 98c8 53bc
000001c0: c2ab 463c 0a3a 703d a1c6 bb3e eb99 f4be
000001d0: 3016 733d 227b 9dbd 7126 45bd 19a3 6c3e
000001e0: 2c89 abbe 194c 423e 1997 823e 5245 42be
000001f0: 68e8 1a3e aa80 e1be 8046 63bd 0f69 833e
00000200: adda 013d 187b bcba 2ca5 c23e 39bb bdbe
00000210: f913 39be a65f 343e ece9 8d3d 8f54 96bc
00000220: 7ff7 1dbe 7fa7 50bc 5533 c6be a9d1 0dbc
00000230: 81ca 693e 7b1d b3bd 5b32 2d3e ded0 fc3d
00000240: a63f f53d f382 fe3d a9d9 863e 6797 ebbd
00000250: 4a89 573e 94b3 84bd d40d b03c 1d0e 813e
00000260: 362d f1bd d8d4 2e3e ab69 063d 9297 93bd
00000270: 2ba8 2cbe 7394 42be ec99 833e 3bdb 4d3e
00000280: 2cbc f33d 5364 f6bd bc04 4f3e 0983 783e
00000290: 28a4 8fbe 994f 10be a875 683e 0bb5 e23e
000002a0: 8bb9 babd 02e6 98be 09e2 e53e 95a5 543e
000002b0: b577 d5bd 2cb3 0d3f 6028 c7bd 4111 c3bd
000002c0: 795a ce3d ec6b 9e3d cf20 6a3b 79ed d63d
000002d0: 774b afbd d21a 773e 6cac 7f3e 168f d8bd
000002e0: e0a1 bcbe 9d60 90be 2cea 07bd fd53 62be
000002f0: 0e01 a73e b7fd d03e 7e45 c6bc f962 893b
00000300: d29e b7bd 269f 543e 310a 98be f624 45be
00000310: 368c d6bb bb2a c23e 032e 693d 07b7 a4bd
00000320: 45be 32bd cf8e 6ebe 2904 b83e 1879 46be
00000330: b537 42bd c4b6 173e e32a 073e 83fd 1fbe
00000340: 4a19 383d 7afe ff3d 334e 9bbc 20c6 99be
00000350: 90f5 d83c 61d5 7a3d f055 b6bd bc7e 45bd
00000360: 8d23 2e3d c634 2fbe 0ac3 91be 7b04 063e
00000370: 9d1d f13e f8a4 6d3c 00b1 c73d 76c8 9d3e
00000380: 554e 713e 0c42 a53e cf98 76be 6086 46bc
00000390: c800 b6be b7eb 803d 348d 133e 5c93 6b3e
000003a0: 78dc 663e cfd9 8b3b 9ffc d63d f85a 5b3e
000003b0: a8df 053d 2a7e d1bd f0b0 12bd 5700 b3be
000003c0: adf3 793e 8145 883d d405 3a3d db41 7b3d
000003d0: b8e2 c4bc 5e97 d13a 9f3c a23d 7424 ae3e
000003e0: ac09 39bb ccbd 1e3e 8f25 003e d7a7 f1bc
000003f0: 79e2 89be 64fd fe3e c771 c7bd 9189 32be
-0.077020094 0.17860068 0.10862557 -0.29429188 0.45733145 -0.3601843 0.4602003 0.053424474
-0.4541279 -0.010781754 -0.17057684 -0.20256653 -0.520174 -0.08102586 0.31926668 0.20697562
0.1805969 0.031301044 -0.24005939 0.27838105 -0.18683355 -0.101028234 0.18413863 0.30775055
0.20841867 0.049299914 -0.2839009 0.042616785 -0.25008234 -0.03054583 0.05899864 -0.5409774
-0.09568205 0.21778698 -0.1408098 0.32787445 0.33376196 -0.118781716 0.32080442 -0.19639221
-0.013377623 0.55323714 0.11104841 -0.08684202 -0.18789329 -0.46763733 0.3403636 -0.42143053
0.23552378 -0.04212566 -0.105570704 0.062794074 -0.07277954 0.022594796 -0.13860682 0.08880587
0.21047272 0.3187259 0.1101252 0.15256383 -0.4185219 0.099591896 -0.14279056 -0.4959779
0.23798352 -0.27068833 -0.08444693 -0.22563082 0.2525797 -0.320905 0.058134973 0.32931322
-0.03288266 0.21236748 -0.48151818 -0.1352971 0.1278767 0.071631715 0.12597248 0.21791114
0.024383957 -0.123077616 -0.013492606 0.21996635 -0.3321091 0.19855937 -0.05396813 -0.34110674
0.30906138 0.25986022 0.21360719 0.030543987 -0.12100952 -0.27788526 0.018578375 -0.33572614
0.1025662 -0.121797904 0.040581707 -0.220423 -0.1282565 0.11067971 0.002085207 -0.23232313
-0.034549125 0.031125464 -0.253959 0.378101 0.046785958 0.038451854 0.066436 -0.012926243
0.012125911 0.0586491 0.3667498 -0.4777368 0.05934733 -0.07689501 -0.048132364 0.23109092
-0.3350309 0.18974341 0.25505903 -0.18971756 0.15127718 -0.44043475 -0.055487156 0.2566609
0.031702686 -0.0014379947 0.3801664 -0.37056902 -0.18074025 0.17614612 0.06929383 -0.018350868
-0.15426444 -0.012735247 -0.38711038 -0.008655944 0.22831155 -0.08745857 0.1691374 0.12344526
0.119750306 0.1242732 0.26337937 -0.11503487 0.21048465 -0.06479564 0.021490969 0.2520608
-0.117762014 0.17073381 0.032815617 -0.07206644 -0.16861026 -0.19001941 0.2570337 0.20103161
0.11901125 -0.12030854 0.2021665 0.24268736 -0.2805493 -0.14092864 0.22701132 0.4427875
-0.09117421 -0.29862982 0.44899014 0.2076629 -0.10423223 0.5535152 -0.09724498 -0.09524775
0.1007585 0.07735428 0.0035725122 0.10494513 -0.08559316 0.24131325 0.24968117 -0.105741665
-0.3684225 -0.2819871 -0.033182308 -0.22102351 0.32617992 0.4081857 -0.024203058 0.0041927067
-0.089658394 0.20763835 -0.29695275 -0.1925238 -0.006547476 0.37923226 0.056928646 -0.08042722
-0.043638486 -0.23296665 0.35940674 -0.19382131 -0.047416408 0.14815813 0.13199954 -0.15624051
0.044945993 0.124997094 -0.018958187 -0.3003397 0.02648428 0.06123865 -0.0890311 -0.048216566
0.042514373 -0.17109975 -0.28469115 0.13087647 0.47092906 0.014504664 0.09750557 0.30817002
0.23565038 0.32276952 -0.2408173 -0.012116998 -0.3554747 0.06294959 0.14409333 0.23005432
0.2254504 0.004267908 0.104974024 0.2142142 0.032684 -0.10229142 -0.035813272 -0.34961197
0.24409361 0.06653882 0.045415714 0.0613421 -0.02403389 0.0015990546 0.07921719 0.34012187
-0.0028234525 0.1550209 0.12514327 -0.029498978 -0.26930597 0.49802697 -0.09738498 -0.1743529

transformer_blocks.0.mla.v_proj f4 [32, 32]
00000000: 5184 f5ba 3af9 01be 24e6 ea3d 9317 65be
00000010: b789 0fbd 4654 9fbe 3009 d4bd bfd6 c53d
00000020: 52f7 e93d 92de 70bd c62d b1bd 8a45 0d3e
00000030: 432d 603e cf2c 79bc 7ff9 a5bd 43fc a0be
00000040: 32be 2fbe bd9b 183e fee7 a3be e64e b9be
00000050: 9799 6c3e ed63 733e 0cdd 9a3e a2df 82be
00000060: dc29 63be 622a 87bd 5e1e 393e 2128 f33d
00000070: 673f 81be a6bc b93d 3494 be3d 148a ecbd
00000080: 9a44 8cbc d004 16bf 1068 a0bd 191c 8d3e
00000090: 134f 583e fd62 193d 2c81 a9be fa2a b73d
000000a0: 8dcc ea3b e2cc babd 5d95 4cbe 64db b23d
000000b0: abf1 883e c124 9d3d 600a 4bbe d983 20bc
000000c0: a251 6d3c 15bc 503e fd98 08bc 245f 32bd
000000d0: 322a 72be a506 a7be 7d1a 37bd 0d76 febd
000000e0: f7f5 aebb b8e7 7c3d 51ed b03d b0b7 173e
000000f0: 632b c1bd 550f e93d e637 313e 566a 70bc
00000100: c532 8c3e e8bf 0c3d 7476 47be ce65 7ebe
00000110: 6cba bbbc 4c10 b5bb 657f 9dbd 7c49 853d
00000120: f92b fb3d 3f8e 4dbe d2b9 ae3d e482 6bbd
00000130: 3a6c 39be a4a9 56be 0a3b 5c3d 3db2 a13b
00000140: d75b 1c3e 450a c4bd 32c3 f2be 8f02 93bd
00000150: d9e8 83bd 6802 b73e e2f5 823c 8511 71bd
00000160: bdb1 f13c aecb c5be cb71 373d de00 dbbd
00000170: 0826 223e dbf7 89be c06e 553e 6cac eebc
00000180: 6963 6abe da9f c43c f239 c2bd 22a0 12be
00000190: d154 15be 15e2 e2bc 4f6a 003e fab3 9abe
000001a0: 499f 4ebe 45aa 5bbe 8673 4f3e 2969 d83d
000001b0: 5028 593e 06d9 acbe 25ef 9e3e a028 813d
000001c0: e544 283d 4d90 e7bc 01ce fa3d 8672 183e
000001d0: 1f64 10be c0c9 893d 2a02 b2bc 5b6c 593e
000001e0: 0fc2 7d3d 0e61 223d 6157 243e dd2a 9fbd
000001f0: b885 bf3d 4491 3ebd 7a41 133c c622 09bf
00000200: b696 ad3c 409f 88bd 55ca a3be 22ff 893e
00000210: 7b49 d13d 28a1 f5bb 04df 8fbe fa90 2c3d
00000220: 39f7 343e bc44 1c3e a5bf 2f3e 38d8 95bc
00000230: 6f70 87be ba47 13be 01cb 9ebc e042 f03d
00000240: 2327 063e 83da 88bc 9b3a 4f3d 2882 af3e
00000250: a2b9 bdbd 9123 8cba 4e70 87be b49d 32be
00000260: f3e8 5dbe d1e3 d8bd 555a aebe 5bcf d93e
00000270: 1ba2 8bbe 5307 463e c6f6 26bd 53b2 9a3e
00000280: b6bd 833e d92d 93bd a5b9 f9bd 9d95 cc3d
00000290: c15e 5fbe a30c 8b3d 2ac2 993c f252 c4bc
000002a0: d229 dc3e 1ae9 ac3c 5cb7 3fbe adde 953e
000002b0: 77e3 9ebe c19c 97bd 9c00 833d f7d4 973e
000002c0: 5902 523e effe 9f3d cd55 543d 5f8b 0f3e
000002d0: f6c1 46be 43ac babd c67c 05be f4b8 2f3c
000002e0: d580 863c 1dc9 903e b6db 5a3a fd9f 583e
000002f0: 6920 df3d 72a4 82bd b6e4 8abe 017f 203e
00000300: 09b1 123e bf69 abbc 349a 3ebd ed08 b63d
00000310: 97f2 323d 0da0 a73e 2d6b 4bbe dc4d 5e3e
00000320: 0024 663e d0db 423e 92e1 78bc 4bcf 6c3e
00000330: 78cf 1dbc 9ee6 f23c 0d37 3a3d 4f34 aabe
00000340: b4f6 8bbe 5411 b83d 86cf fc3c 2a90 623d
00000350: 92ce 16bd 8653 19be c6d6 0fbc 0584 8c3e
00000360: a568 743d 9044 593e 9a66 913e 4710 223e
00000370: 7166 083e d947 04be 2225 c2be 3a5f 253e
00000380: 09e9 823e 98fe 323e bcb0 693e 5231 c43c
00000390: 5d7c 043e 8ca2 0b3e ba03 7dbd e191 d33b
000003a0: b618 1abe 0221 a73e 3d14 023e 2564 36bd
000003b0: f73b a03e 56c8 6cbd e491 7abd 2e95 8cbe
000003c0: e3b2 09bf f81d 53bb 260b d23e 3e6c 9d3d
000003d0: ac4b 353d 23a9 703e 9d15 3ebe 49e6 a8bd
000003e0: 7e2d 85be 0a73 85bd fa56 4cbd eb4c 843d
000003f0: ee9a 513e 2547 d03c 2f69 7abe 6ae6 9ebe
-0.001873145 -0.12692729 0.11469677 -0.22372274 -0.035043444 -0.31118983 -0.10353315 0.096601
0.11424126 -0.05880601 -0.08651309 0.13796058 0.21892266 -0.015208437 -0.08104228 -0.3144246
-0.17162398 0.1490316 -0.32012933 -0.36193007 0.23105465 0.23768587 0.3024677 -0.25561243
-0.22183937 -0.06599881 0.1807799 0.11872888 -0.25243685 0.09069185 0.09305611 -0.11549774
-0.017122556 -0.58601093 -0.07832348 0.275605 0.21123914 0.03744792 -0.33106363 0.08943744
0.0071654976 -0.091211095 -0.19978853 0.08733252 0.26746878 0.07673026 -0.19828176 -0.00979706
0.014484795 0.20384248 -0.0083372565 -0.043547764 -0.23648909 -0.32622257 -0.044702996 -0.1242486
-0.00533938 0.06174442 0.086390145 0.14816165 -0.094321035 0.113798775 0.1730648 -0.01467379
0.27382484 0.034362704 -0.1947878 -0.24843523 -0.022916041 -0.0055256244 -0.07690314 0.06508157
0.122642465 -0.20073794 0.08531536 -0.057497874 -0.18107691 -0.2096315 0.05376724 0.0049345777
0.15269409 -0.09572271 -0.47414547 -0.071782224 -0.064408965 0.35744023 0.015986387 -0.0588546
0.029503698 -0.38631958 0.044786256 -0.10693525 0.1583482 -0.2694691 0.20843029 -0.029134952
-0.22889484 0.024002004 -0.094837084 -0.14318898 -0.14583136 -0.027695695 0.12540554 -0.30215436
-0.2017795 -0.21451671 0.20258912 0.10566933 0.21206784 -0.33759326 0.31041828 0.06306577
0.041081328 -0.02826705 0.122463234 0.14887437 -0.14100693 0.06727934 -0.021729548 0.2123274
0.061952647 0.03964334 0.16048957 -0.077718474 0.09351677 -0.046525255 0.008987779 -0.53568685
0.021190029 -0.066709995 -0.31990305 0.26952463 0.102190934 -0.007496018 -0.28099835 0.042130448
0.17672433 0.15260595 0.1716295 -0.018291578 -0.26452968 -0.1438283 -0.01938391 0.117315054
0.13100867 -0.016705757 0.050593 0.3427899 -0.09263922 -0.0010691752 -0.2645287 -0.17442971
-0.21670894 -0.105903275 -0.34053293 0.42541012 -0.27272114 0.19338731 -0.040762685 0.30214176
0.25730675 -0.07186479 -0.12193612 0.09989474 -0.2181349 0.0678952 0.018769342 -0.023965333
0.43000656 0.021107245 -0.1872229 0.2927145 -0.31032917 -0.07402945 0.063966006 0.29654667
0.20508708 0.078122966 0.05183964 0.1401801 -0.19409928 -0.091148876 -0.13035879 0.010725249
0.016418854 0.28278437 0.00083487795 0.2115478 0.108948536 -0.06379022 -0.27127618 0.15673448
0.14325346 -0.020924447 -0.04653378 0.08888421 0.043688383 0.32739297 -0.19865103 0.21709388
0.2247467 0.19029164 -0.015190499 0.23125951 -0.009631984 0.029650982 0.045462657 -0.33243033
-0.27336657 0.0898768 0.030860674 0.055313267 -0.036818095 -0.14973268 -0.008779233 0.27444473
0.05967011 0.21217561 0.2839859 0.15826522 0.13320328 -0.12918033 -0.37918955 0.16149607
0.25568417 0.17479932 0.22821325 0.023949299 0.12938066 0.13636225 -0.061771132 0.006456599
-0.15048489 0.3264237 0.12703033 -0.0445291 0.3129575 -0.057808243 -0.06117429 -0.27457565
-0.53788584 -0.0032213908 0.4102413 0.07686661 0.04426162 0.2350202 -0.18562932 -0.082470484
-0.2601127 -0.065160826 -0.049887635 0.064599834 0.20469257 0.02542455 -0.24454187 -0.31035167

transformer_blocks.0.mla.o_proj f4 [32, 32]
00000000: 9138 c5be 57ae debd b24a 14be 03c7 cc3e
00000010: 707b efbd 124a 70bd a7c5 a13e 0616 ac3e
00000020: ebff 1b3c 55f7 1dbc cc3e d53d 0516 f03d
00000030: 952d 26be a098 4a3e e4d5 78be ba7a d7bd
00000040: b30b 1b3d 8a75 bcbd 3bfc 513e 7b97 78be
00000050: 8c01 ac3d f3a4 0bbe 250b c13d 361e 4cbe
00000060: 80c2 2cbd 30b3 c73e d6a7 a1be e9e4 f53d
00000070: 842a 723e 64ee 853a 8a42 573e 05bf 333e
00000080: 907b 873e 38c7 02bd 4391 a63d 3671 813a
00000090: 47c2 adbd eb10 60bc e27a 89be 70b4 503e
000000a0: 6643 91bd b88a fabd f385 a53d 3fb9 833e
000000b0: 73fe 243d 3752 8abe cba9 8abe 153b 0c3e
000000c0: bcb2 1a3e be2f 413e f5f1 bdbe 480c d1bd
000000d0: 90d9 e0bc 39ee 953e ac89 d5bd a9cf 653d
000000e0: 7f76 833d 8345 bebd faf7 eebd 2f04 d73d
000000f0: 1153 dbbd 3913 3dbe b7ea 163e fc27 70be
00000100: 445b ddbd 8af6 903c bbea 92be 925f 1fbe
00000110: 2ff8 693d ae34 7d3e 8a0c 3ebd cb00 a1bd
00000120: 5b28 933d 5bd4 b8bd 1774 48be 8c73 82be
00000130: ed9f 9bbd fbbf 113d 8cdd 243e b951 a43e
00000140: f483 0bbd 1c0c bb3d 6986 8b3c a043 24bd
00000150: 55b9 b13e 02ba 373e 64bc d2bc 367b 4abc
00000160: 9227 ebbe 24da b83e f17f bf3d 1f55 82bd
00000170: 09ef c13d 82e2 be3d c64c fdbd 285c 563d
00000180: bc41 aebd cc19 ab3e ae2e c23b db86 bebb
00000190: 29e4 9a3d a714 19bd 49c1 e6bb 2e69 55be
000001a0: 60d0 81bc b179 183e 4c18 18be 1a1e 283e
000001b0: 21ca eb3d ce79 933d e2b3 4e3e 9afe d13b
000001c0: 76ea c9bd e913 c43c 7558 2f3e 5743 b6bc
000001d0: 20c2 d4be 1350 4a3d ceca 963e 382d b6bc
000001e0: c294 6abd cfcf 0fbe 14bb 94be 6200 023e
000001f0: d0e1 fbbd 3a51 47bd 8a4c a4be 2fb5 d03d
00000200: f680 69be 689f 98be 4f92 343d b4d5 84bd
00000210: c450 68be f470 8e3e dd48 c13d 2486 6d3e
00000220: cf94 973d 9df2 6abd 8937 1dbe 026a 58bd
00000230: f26c 2ebe 1c88 a7bd 3869 93bd 44e0 e13d
00000240: cb07 ca3e fd0d 53bd 67c1 88be 667d 813c
00000250: 790e 463e 9048 0fbd cc68 193e 5b1b 3a3e
00000260: 6327 083e 3a49 0fbd b7b1 b63e 53e1 743d
00000270: 9dcb 993d 3eb9 363e e8d9 6f3e 9cc5 2b3e
00000280: 0416 ac3d e842 29be 333c 8abe 58df 943d
00000290: 8919 023f cf54 4f3e acae 8cbd b31d c43e
000002a0: beb2 8c3e 89d2 3bbe 833f 233e 9f54 9cbd
000002b0: 430f 083e 9697 793d a4e5 36be 0a0b 58be
000002c0: a361 0b3e 86b3 c7bd 98c8 6abe f086 21be
000002d0: 5cd3 833c 6b80 26bd f882 ffbd 3dca fdbd
000002e0: cc98 2c3e b314 35be 64b3 4abc a5e5 7d3d
000002f0: dfcb 183e 03de 80be 85f7 32be 638b 8dbb
00000300: 9f36 05be 7883 cdbd e9d3 98bd afdc 503e
00000310: 9ca9 b2bd 320b b6bd 7959 46be bd53 0fbe
00000320: 3eda 0a3e 1f43 10be db07 b03d 84a1 553e
00000330: 4a94 2c3e e0a3 aabd 5845 ba3c 063b 58be
00000340: a6e7 123e c122 91be 2850 c43e 84f5 013e
00000350: cc12 92be 63d2 65bc e24f 1f3d 4b8a 8d3d
00000360: fb4a a83d 3a5a e0bd 2a82 ebbd e544 853c
00000370: ebeb 5b3e a365 debd 9182 f43d b586 70be
00000380: 9455 563e ad87 67be f1d8 8e3d 0731 87be
00000390: 5cc7 113e 641d cebd b2a9 fc3d 54b1 fa3d
000003a0: 85dd dbbd 6eed b63a 35c5 17bd 1ce2 153e
000003b0: b273 6b3d 7f69 7f3d 6c7b fcbd be1e 8abd
000003c0: d5e2 25be 318a 323e 316b 5cbe 7bd0 31be
000003d0: df98 97bd f53c 86be 6188 8f3e 306a 0abe
000003e0: ab7d 28bd 137f 5a3e 7ecd a9bd b35d 8bbd
000003f0: 2a50 133e abb9 333e d7fc d8bc 7501 00bd
-0.3851972 -0.108730964 -0.14481619 0.39995584 -0.11693466 -0.05866439 0.3159611 0.33610553
0.009521465 -0.009641488 0.10412368 0.1172295 -0.16228326 0.19784784 -0.24300343 -0.10521455
0.037852954 -0.09202106 0.20506375 -0.24276535 0.083987325 -0.13637142 0.09425954 -0.199334
-0.042177677 0.39003897 -0.3157336 0.12006552 0.23649031 0.0010218141 0.21021476 0.17553337
0.26461458 -0.03192827 0.08133175 0.0009875658 -0.08484321 -0.013675909 -0.26851565 0.20381331
-0.07092933 -0.1223349 0.080821894 0.2572727 0.040281724 -0.2701585 -0.27082667 0.13694413
0.15107244 0.18865868 -0.3709866 -0.102074206 -0.027447492 0.29283312 -0.104266495 0.056106243
0.06419086 -0.09290602 -0.116683915 0.10498845 -0.10709203 -0.18464364 0.14737974 -0.23452753
-0.10808423 0.017695684 -0.2869471 -0.15563801 0.057121452 0.24727127 -0.046398677 -0.07861479
0.071854316 -0.090248786 -0.19575535 -0.2547878 -0.07598863 0.035583477 0.16100138 0.320936
-0.034061387 0.09133169 0.017031865 -0.040103555 0.3471171 0.1794205 -0.025724597 -0.012358477
-0.45928627 0.36103928 0.09350575 -0.06363892 0.094694205 0.09320547 -0.12368159 0.05233398
-0.085086316 0.3341812 0.005925975 -0.005814416 0.07563049 -0.03737321 -0.0070420844 -0.20840904
-0.015846431 0.14890172 -0.14853019 0.16417733 0.115131624 0.07200967 0.20185807 0.0064085247
-0.09859173 0.023935275 0.17123587 -0.022248907 -0.41554356 0.04939277 0.29451603 -0.022238359
-0.057270773 -0.14044116 -0.2904898 0.12695459 -0.1229893 -0.048661448 -0.32089645 0.10190808
-0.22803101 -0.29809117 0.044084843 -0.06486073 -0.2268706 0.2782055 0.09437726 0.23195702
0.0740143 -0.05736028 -0.15353216 -0.052835472 -0.17033747 -0.08180258 -0.07197803 0.110291034
0.3945907 -0.051527012 -0.26710054 0.015806865 0.19341458 -0.03498131 0.14981383 0.18174498
0.13296275 -0.034981944 0.3568246 0.0597852 0.07509539 0.17844102 0.23422968 0.167746
0.08402637 -0.16529429 -0.26999053 0.07269162 0.50820214 0.20247196 -0.068692535 0.3830391
0.2748012 -0.18342032 0.15942197 -0.07633328 0.13287072 0.06093558 -0.17861038 -0.21097961
0.13611464 -0.09751038 -0.22928083 -0.15774131 0.016091995 -0.040649813 -0.12476152 -0.123920895
0.16855162 -0.17683677 -0.012371872 0.061986584 0.1492152 -0.25169381 -0.17477234 -0.0043195947
-0.13009118 -0.10034841 -0.07462294 0.20396684 -0.08723757 -0.08888854 -0.19370069 -0.13996787
0.13559815 -0.14088105 0.08595248 0.20862395 0.16853443 -0.08332038 0.022738144 -0.21116266
0.1434618 -0.28346828 0.38342404 0.12691313 -0.28529966 -0.014027211 0.03889454 0.06911143
0.082174264 -0.10954709 -0.11499436 0.016268203 0.21476714 -0.108592294 0.11938966 -0.23488887
0.20931083 -0.2261035 0.06974972 -0.26404592 0.14236206 -0.100641996 0.12337054 0.12240854
-0.10735611 0.0013956258 -0.037053306 0.14637035 0.057483383 0.06235647 -0.12328228 -0.06744145
-0.16199811 0.17435528 -0.21525265 -0.17364685 -0.07402205 -0.26218382 0.28033736 -0.1351707
-0.04113547 0.21337537 -0.08291148 -0.06804981 0.14386049 0.17551295 -0.026487751 -0.03125139

transformer_blocks.0.norm1.g f4 [32]
00000000: ec97 7a3f b99c 833f 39c6 843f 91ef 6c3f
00000010: 982c 733f 4fdf 863f 3e80 7f3f 5aec 7b3f
00000020: c843 753f 878a 893f 1f80 6d3f aab0 813f
00000030: c0e3 7b3f ae29 763f c632 6f3f 7a14 813f
00000040: f5b5 813f b9cb 693f 469b 7d3f 3305 743f
00000050: d205 683f 55df 7d3f 05ec 6a3f 8900 853f
00000060: c429 893f 5548 873f 78f2 703f f342 7f3f
00000070: efb9 883f 33b2 853f 1d5e 883f 3583 7d3f
0.97888064 1.0282203 1.0372993 0.9255305 0.9498992 1.0536898 0.9980506 0.9840752
0.9580655 1.07454 0.9277362 1.0132039 0.98394394 0.9615735 0.9343685 1.0084374
1.0133654 0.9132648 0.99065053 0.95320433 0.9063388 0.991689 0.9176639 1.0390788
1.0715871 1.0568949 0.9411998 0.9971153 1.0681742 1.0445007 1.0653721 0.9902833

transformer_blocks.0.norm2.g f4 [32]
00000000: 2e1f 893f 657a 873f 5a2f 853f 0377 753f
00000010: bc3a 833f 5997 753f 8678 8a3f 4252 843f
00000020: b082 803f b646 5b3f 64ff 773f 54d3 863f
00000030: 1685 8e3f 518f 913f c968 703f b064 783f
00000040: dd22 813f 001a 7f3f a913 813f 770a 803f
00000050: 3cf9 823f 459d 813f 704f 7d3f 6584 843f
00000060: b858 873f 88f0 703f 5e9f 723f 522c 893f
00000070: 4ade 883f c006 713f dc9e 763f a84f 823f
1.071264 1.0584227 1.0405076 0.9588472 1.0252299 0.95934063 1.0818031 1.0337603
1.0039883 0.8565477 0.9687407 1.0533242 1.1134365 1.1371862 0.9390989 0.97028637
1.0088764 0.9964905 1.0084125 1.0003194 1.023231 1.012612 0.98949337 1.0352904
1.057395 0.9411702 0.94774425 1.071665 1.0692837 0.94150925 0.9633615 1.0180559
